<?xml version="1.0" ?>
<net name="saved_model" version="10">
	<layers>
		<layer id="0" name="image_input" type="Parameter" version="opset1">
			<data shape="1,3,608,608" element_type="f32"/>
			<output>
				<port id="0" precision="FP32">
					<dim>1</dim>
					<dim>3</dim>
					<dim>608</dim>
					<dim>608</dim>
				</port>
			</output>
		</layer>
		<layer id="1" name="StatefulPartitionedCall/model/conv2d/Conv2D/Transpose26629_const" type="Const" version="opset1">
			<data offset="0" size="3456" shape="32,3,3,3" element_type="f32"/>
			<output>
				<port id="1" precision="FP32">
					<dim>32</dim>
					<dim>3</dim>
					<dim>3</dim>
					<dim>3</dim>
				</port>
			</output>
		</layer>
		<layer id="2" name="StatefulPartitionedCall/model/conv2d/Conv2D" type="Convolution" version="opset1">
			<data auto_pad="same_upper" strides="1,1" dilations="1,1" pads_begin="0,0" pads_end="0,0" output_padding="0,0"/>
			<input>
				<port id="0">
					<dim>1</dim>
					<dim>3</dim>
					<dim>608</dim>
					<dim>608</dim>
				</port>
				<port id="1">
					<dim>32</dim>
					<dim>3</dim>
					<dim>3</dim>
					<dim>3</dim>
				</port>
			</input>
			<output>
				<port id="2" precision="FP32">
					<dim>1</dim>
					<dim>32</dim>
					<dim>608</dim>
					<dim>608</dim>
				</port>
			</output>
		</layer>
		<layer id="3" name="data_add_2105822030/EltwiseUnsqueeze22262_const" type="Const" version="opset1">
			<data offset="3456" size="128" shape="1,32,1,1" element_type="f32"/>
			<output>
				<port id="1" precision="FP32">
					<dim>1</dim>
					<dim>32</dim>
					<dim>1</dim>
					<dim>1</dim>
				</port>
			</output>
		</layer>
		<layer id="4" name="StatefulPartitionedCall/model/batch_normalization/FusedBatchNormV3/variance/Fused_Add_" type="Add" version="opset1">
			<input>
				<port id="0">
					<dim>1</dim>
					<dim>32</dim>
					<dim>608</dim>
					<dim>608</dim>
				</port>
				<port id="1">
					<dim>1</dim>
					<dim>32</dim>
					<dim>1</dim>
					<dim>1</dim>
				</port>
			</input>
			<output>
				<port id="2" precision="FP32">
					<dim>1</dim>
					<dim>32</dim>
					<dim>608</dim>
					<dim>608</dim>
				</port>
			</output>
		</layer>
		<layer id="5" name="StatefulPartitionedCall/model/activation/mul" type="Mish" version="opset4">
			<input>
				<port id="0">
					<dim>1</dim>
					<dim>32</dim>
					<dim>608</dim>
					<dim>608</dim>
				</port>
			</input>
			<output>
				<port id="1" precision="FP32">
					<dim>1</dim>
					<dim>32</dim>
					<dim>608</dim>
					<dim>608</dim>
				</port>
			</output>
		</layer>
		<layer id="6" name="StatefulPartitionedCall/model/conv2d_1/Conv2D/Transpose26633_const" type="Const" version="opset1">
			<data offset="3584" size="73728" shape="64,32,3,3" element_type="f32"/>
			<output>
				<port id="1" precision="FP32">
					<dim>64</dim>
					<dim>32</dim>
					<dim>3</dim>
					<dim>3</dim>
				</port>
			</output>
		</layer>
		<layer id="7" name="StatefulPartitionedCall/model/conv2d_1/Conv2D" type="Convolution" version="opset1">
			<data strides="2,2" dilations="1,1" pads_begin="1,1" pads_end="0,0" output_padding="0,0"/>
			<input>
				<port id="0">
					<dim>1</dim>
					<dim>32</dim>
					<dim>608</dim>
					<dim>608</dim>
				</port>
				<port id="1">
					<dim>64</dim>
					<dim>32</dim>
					<dim>3</dim>
					<dim>3</dim>
				</port>
			</input>
			<output>
				<port id="2" precision="FP32">
					<dim>1</dim>
					<dim>64</dim>
					<dim>304</dim>
					<dim>304</dim>
				</port>
			</output>
		</layer>
		<layer id="8" name="data_add_210612106622032/EltwiseUnsqueeze22270_const" type="Const" version="opset1">
			<data offset="77312" size="256" shape="1,64,1,1" element_type="f32"/>
			<output>
				<port id="1" precision="FP32">
					<dim>1</dim>
					<dim>64</dim>
					<dim>1</dim>
					<dim>1</dim>
				</port>
			</output>
		</layer>
		<layer id="9" name="StatefulPartitionedCall/model/batch_normalization_1/FusedBatchNormV3/variance/Fused_Add_" type="Add" version="opset1">
			<input>
				<port id="0">
					<dim>1</dim>
					<dim>64</dim>
					<dim>304</dim>
					<dim>304</dim>
				</port>
				<port id="1">
					<dim>1</dim>
					<dim>64</dim>
					<dim>1</dim>
					<dim>1</dim>
				</port>
			</input>
			<output>
				<port id="2" precision="FP32">
					<dim>1</dim>
					<dim>64</dim>
					<dim>304</dim>
					<dim>304</dim>
				</port>
			</output>
		</layer>
		<layer id="10" name="StatefulPartitionedCall/model/activation_1/mul" type="Mish" version="opset4">
			<input>
				<port id="0">
					<dim>1</dim>
					<dim>64</dim>
					<dim>304</dim>
					<dim>304</dim>
				</port>
			</input>
			<output>
				<port id="1" precision="FP32">
					<dim>1</dim>
					<dim>64</dim>
					<dim>304</dim>
					<dim>304</dim>
				</port>
			</output>
		</layer>
		<layer id="11" name="StatefulPartitionedCall/model/conv2d_3/Conv2D/Transpose26637_const" type="Const" version="opset1">
			<data offset="77568" size="16384" shape="64,64,1,1" element_type="f32"/>
			<output>
				<port id="1" precision="FP32">
					<dim>64</dim>
					<dim>64</dim>
					<dim>1</dim>
					<dim>1</dim>
				</port>
			</output>
		</layer>
		<layer id="12" name="StatefulPartitionedCall/model/conv2d_3/Conv2D" type="Convolution" version="opset1">
			<data auto_pad="same_upper" strides="1,1" dilations="1,1" pads_begin="0,0" pads_end="0,0" output_padding="0,0"/>
			<input>
				<port id="0">
					<dim>1</dim>
					<dim>64</dim>
					<dim>304</dim>
					<dim>304</dim>
				</port>
				<port id="1">
					<dim>64</dim>
					<dim>64</dim>
					<dim>1</dim>
					<dim>1</dim>
				</port>
			</input>
			<output>
				<port id="2" precision="FP32">
					<dim>1</dim>
					<dim>64</dim>
					<dim>304</dim>
					<dim>304</dim>
				</port>
			</output>
		</layer>
		<layer id="13" name="data_add_210772108222036/EltwiseUnsqueeze22286_const" type="Const" version="opset1">
			<data offset="93952" size="256" shape="1,64,1,1" element_type="f32"/>
			<output>
				<port id="1" precision="FP32">
					<dim>1</dim>
					<dim>64</dim>
					<dim>1</dim>
					<dim>1</dim>
				</port>
			</output>
		</layer>
		<layer id="14" name="StatefulPartitionedCall/model/batch_normalization_3/FusedBatchNormV3/variance/Fused_Add_" type="Add" version="opset1">
			<input>
				<port id="0">
					<dim>1</dim>
					<dim>64</dim>
					<dim>304</dim>
					<dim>304</dim>
				</port>
				<port id="1">
					<dim>1</dim>
					<dim>64</dim>
					<dim>1</dim>
					<dim>1</dim>
				</port>
			</input>
			<output>
				<port id="2" precision="FP32">
					<dim>1</dim>
					<dim>64</dim>
					<dim>304</dim>
					<dim>304</dim>
				</port>
			</output>
		</layer>
		<layer id="15" name="StatefulPartitionedCall/model/activation_3/mul" type="Mish" version="opset4">
			<input>
				<port id="0">
					<dim>1</dim>
					<dim>64</dim>
					<dim>304</dim>
					<dim>304</dim>
				</port>
			</input>
			<output>
				<port id="1" precision="FP32">
					<dim>1</dim>
					<dim>64</dim>
					<dim>304</dim>
					<dim>304</dim>
				</port>
			</output>
		</layer>
		<layer id="16" name="StatefulPartitionedCall/model/conv2d_4/Conv2D/Transpose26641_const" type="Const" version="opset1">
			<data offset="94208" size="8192" shape="32,64,1,1" element_type="f32"/>
			<output>
				<port id="1" precision="FP32">
					<dim>32</dim>
					<dim>64</dim>
					<dim>1</dim>
					<dim>1</dim>
				</port>
			</output>
		</layer>
		<layer id="17" name="StatefulPartitionedCall/model/conv2d_4/Conv2D" type="Convolution" version="opset1">
			<data auto_pad="same_upper" strides="1,1" dilations="1,1" pads_begin="0,0" pads_end="0,0" output_padding="0,0"/>
			<input>
				<port id="0">
					<dim>1</dim>
					<dim>64</dim>
					<dim>304</dim>
					<dim>304</dim>
				</port>
				<port id="1">
					<dim>32</dim>
					<dim>64</dim>
					<dim>1</dim>
					<dim>1</dim>
				</port>
			</input>
			<output>
				<port id="2" precision="FP32">
					<dim>1</dim>
					<dim>32</dim>
					<dim>304</dim>
					<dim>304</dim>
				</port>
			</output>
		</layer>
		<layer id="18" name="data_add_210852109022038/EltwiseUnsqueeze22294_const" type="Const" version="opset1">
			<data offset="102400" size="128" shape="1,32,1,1" element_type="f32"/>
			<output>
				<port id="1" precision="FP32">
					<dim>1</dim>
					<dim>32</dim>
					<dim>1</dim>
					<dim>1</dim>
				</port>
			</output>
		</layer>
		<layer id="19" name="StatefulPartitionedCall/model/batch_normalization_4/FusedBatchNormV3/variance/Fused_Add_" type="Add" version="opset1">
			<input>
				<port id="0">
					<dim>1</dim>
					<dim>32</dim>
					<dim>304</dim>
					<dim>304</dim>
				</port>
				<port id="1">
					<dim>1</dim>
					<dim>32</dim>
					<dim>1</dim>
					<dim>1</dim>
				</port>
			</input>
			<output>
				<port id="2" precision="FP32">
					<dim>1</dim>
					<dim>32</dim>
					<dim>304</dim>
					<dim>304</dim>
				</port>
			</output>
		</layer>
		<layer id="20" name="StatefulPartitionedCall/model/activation_4/mul" type="Mish" version="opset4">
			<input>
				<port id="0">
					<dim>1</dim>
					<dim>32</dim>
					<dim>304</dim>
					<dim>304</dim>
				</port>
			</input>
			<output>
				<port id="1" precision="FP32">
					<dim>1</dim>
					<dim>32</dim>
					<dim>304</dim>
					<dim>304</dim>
				</port>
			</output>
		</layer>
		<layer id="21" name="StatefulPartitionedCall/model/conv2d_5/Conv2D/Transpose26645_const" type="Const" version="opset1">
			<data offset="102528" size="73728" shape="64,32,3,3" element_type="f32"/>
			<output>
				<port id="1" precision="FP32">
					<dim>64</dim>
					<dim>32</dim>
					<dim>3</dim>
					<dim>3</dim>
				</port>
			</output>
		</layer>
		<layer id="22" name="StatefulPartitionedCall/model/conv2d_5/Conv2D" type="Convolution" version="opset1">
			<data auto_pad="same_upper" strides="1,1" dilations="1,1" pads_begin="0,0" pads_end="0,0" output_padding="0,0"/>
			<input>
				<port id="0">
					<dim>1</dim>
					<dim>32</dim>
					<dim>304</dim>
					<dim>304</dim>
				</port>
				<port id="1">
					<dim>64</dim>
					<dim>32</dim>
					<dim>3</dim>
					<dim>3</dim>
				</port>
			</input>
			<output>
				<port id="2" precision="FP32">
					<dim>1</dim>
					<dim>64</dim>
					<dim>304</dim>
					<dim>304</dim>
				</port>
			</output>
		</layer>
		<layer id="23" name="data_add_210932109822040/EltwiseUnsqueeze22302_const" type="Const" version="opset1">
			<data offset="176256" size="256" shape="1,64,1,1" element_type="f32"/>
			<output>
				<port id="1" precision="FP32">
					<dim>1</dim>
					<dim>64</dim>
					<dim>1</dim>
					<dim>1</dim>
				</port>
			</output>
		</layer>
		<layer id="24" name="StatefulPartitionedCall/model/batch_normalization_5/FusedBatchNormV3/variance/Fused_Add_" type="Add" version="opset1">
			<input>
				<port id="0">
					<dim>1</dim>
					<dim>64</dim>
					<dim>304</dim>
					<dim>304</dim>
				</port>
				<port id="1">
					<dim>1</dim>
					<dim>64</dim>
					<dim>1</dim>
					<dim>1</dim>
				</port>
			</input>
			<output>
				<port id="2" precision="FP32">
					<dim>1</dim>
					<dim>64</dim>
					<dim>304</dim>
					<dim>304</dim>
				</port>
			</output>
		</layer>
		<layer id="25" name="StatefulPartitionedCall/model/activation_5/mul" type="Mish" version="opset4">
			<input>
				<port id="0">
					<dim>1</dim>
					<dim>64</dim>
					<dim>304</dim>
					<dim>304</dim>
				</port>
			</input>
			<output>
				<port id="1" precision="FP32">
					<dim>1</dim>
					<dim>64</dim>
					<dim>304</dim>
					<dim>304</dim>
				</port>
			</output>
		</layer>
		<layer id="26" name="StatefulPartitionedCall/model/add/add" type="Add" version="opset1">
			<input>
				<port id="0">
					<dim>1</dim>
					<dim>64</dim>
					<dim>304</dim>
					<dim>304</dim>
				</port>
				<port id="1">
					<dim>1</dim>
					<dim>64</dim>
					<dim>304</dim>
					<dim>304</dim>
				</port>
			</input>
			<output>
				<port id="2" precision="FP32">
					<dim>1</dim>
					<dim>64</dim>
					<dim>304</dim>
					<dim>304</dim>
				</port>
			</output>
		</layer>
		<layer id="27" name="StatefulPartitionedCall/model/conv2d_6/Conv2D/Transpose26649_const" type="Const" version="opset1">
			<data offset="176512" size="16384" shape="64,64,1,1" element_type="f32"/>
			<output>
				<port id="1" precision="FP32">
					<dim>64</dim>
					<dim>64</dim>
					<dim>1</dim>
					<dim>1</dim>
				</port>
			</output>
		</layer>
		<layer id="28" name="StatefulPartitionedCall/model/conv2d_6/Conv2D" type="Convolution" version="opset1">
			<data auto_pad="same_upper" strides="1,1" dilations="1,1" pads_begin="0,0" pads_end="0,0" output_padding="0,0"/>
			<input>
				<port id="0">
					<dim>1</dim>
					<dim>64</dim>
					<dim>304</dim>
					<dim>304</dim>
				</port>
				<port id="1">
					<dim>64</dim>
					<dim>64</dim>
					<dim>1</dim>
					<dim>1</dim>
				</port>
			</input>
			<output>
				<port id="2" precision="FP32">
					<dim>1</dim>
					<dim>64</dim>
					<dim>304</dim>
					<dim>304</dim>
				</port>
			</output>
		</layer>
		<layer id="29" name="data_add_211012110622042/EltwiseUnsqueeze22310_const" type="Const" version="opset1">
			<data offset="192896" size="256" shape="1,64,1,1" element_type="f32"/>
			<output>
				<port id="1" precision="FP32">
					<dim>1</dim>
					<dim>64</dim>
					<dim>1</dim>
					<dim>1</dim>
				</port>
			</output>
		</layer>
		<layer id="30" name="StatefulPartitionedCall/model/batch_normalization_6/FusedBatchNormV3/variance/Fused_Add_" type="Add" version="opset1">
			<input>
				<port id="0">
					<dim>1</dim>
					<dim>64</dim>
					<dim>304</dim>
					<dim>304</dim>
				</port>
				<port id="1">
					<dim>1</dim>
					<dim>64</dim>
					<dim>1</dim>
					<dim>1</dim>
				</port>
			</input>
			<output>
				<port id="2" precision="FP32">
					<dim>1</dim>
					<dim>64</dim>
					<dim>304</dim>
					<dim>304</dim>
				</port>
			</output>
		</layer>
		<layer id="31" name="StatefulPartitionedCall/model/activation_6/mul" type="Mish" version="opset4">
			<input>
				<port id="0">
					<dim>1</dim>
					<dim>64</dim>
					<dim>304</dim>
					<dim>304</dim>
				</port>
			</input>
			<output>
				<port id="1" precision="FP32">
					<dim>1</dim>
					<dim>64</dim>
					<dim>304</dim>
					<dim>304</dim>
				</port>
			</output>
		</layer>
		<layer id="32" name="StatefulPartitionedCall/model/conv2d_2/Conv2D/Transpose26653_const" type="Const" version="opset1">
			<data offset="193152" size="16384" shape="64,64,1,1" element_type="f32"/>
			<output>
				<port id="1" precision="FP32">
					<dim>64</dim>
					<dim>64</dim>
					<dim>1</dim>
					<dim>1</dim>
				</port>
			</output>
		</layer>
		<layer id="33" name="StatefulPartitionedCall/model/conv2d_2/Conv2D" type="Convolution" version="opset1">
			<data auto_pad="same_upper" strides="1,1" dilations="1,1" pads_begin="0,0" pads_end="0,0" output_padding="0,0"/>
			<input>
				<port id="0">
					<dim>1</dim>
					<dim>64</dim>
					<dim>304</dim>
					<dim>304</dim>
				</port>
				<port id="1">
					<dim>64</dim>
					<dim>64</dim>
					<dim>1</dim>
					<dim>1</dim>
				</port>
			</input>
			<output>
				<port id="2" precision="FP32">
					<dim>1</dim>
					<dim>64</dim>
					<dim>304</dim>
					<dim>304</dim>
				</port>
			</output>
		</layer>
		<layer id="34" name="data_add_210692107422034/EltwiseUnsqueeze22278_const" type="Const" version="opset1">
			<data offset="209536" size="256" shape="1,64,1,1" element_type="f32"/>
			<output>
				<port id="1" precision="FP32">
					<dim>1</dim>
					<dim>64</dim>
					<dim>1</dim>
					<dim>1</dim>
				</port>
			</output>
		</layer>
		<layer id="35" name="StatefulPartitionedCall/model/batch_normalization_2/FusedBatchNormV3/variance/Fused_Add_" type="Add" version="opset1">
			<input>
				<port id="0">
					<dim>1</dim>
					<dim>64</dim>
					<dim>304</dim>
					<dim>304</dim>
				</port>
				<port id="1">
					<dim>1</dim>
					<dim>64</dim>
					<dim>1</dim>
					<dim>1</dim>
				</port>
			</input>
			<output>
				<port id="2" precision="FP32">
					<dim>1</dim>
					<dim>64</dim>
					<dim>304</dim>
					<dim>304</dim>
				</port>
			</output>
		</layer>
		<layer id="36" name="StatefulPartitionedCall/model/activation_2/mul" type="Mish" version="opset4">
			<input>
				<port id="0">
					<dim>1</dim>
					<dim>64</dim>
					<dim>304</dim>
					<dim>304</dim>
				</port>
			</input>
			<output>
				<port id="1" precision="FP32">
					<dim>1</dim>
					<dim>64</dim>
					<dim>304</dim>
					<dim>304</dim>
				</port>
			</output>
		</layer>
		<layer id="37" name="StatefulPartitionedCall/model/concatenate/concat" type="Concat" version="opset1">
			<data axis="1"/>
			<input>
				<port id="0">
					<dim>1</dim>
					<dim>64</dim>
					<dim>304</dim>
					<dim>304</dim>
				</port>
				<port id="1">
					<dim>1</dim>
					<dim>64</dim>
					<dim>304</dim>
					<dim>304</dim>
				</port>
			</input>
			<output>
				<port id="2" precision="FP32">
					<dim>1</dim>
					<dim>128</dim>
					<dim>304</dim>
					<dim>304</dim>
				</port>
			</output>
		</layer>
		<layer id="38" name="StatefulPartitionedCall/model/conv2d_7/Conv2D/Transpose26657_const" type="Const" version="opset1">
			<data offset="209792" size="32768" shape="64,128,1,1" element_type="f32"/>
			<output>
				<port id="1" precision="FP32">
					<dim>64</dim>
					<dim>128</dim>
					<dim>1</dim>
					<dim>1</dim>
				</port>
			</output>
		</layer>
		<layer id="39" name="StatefulPartitionedCall/model/conv2d_7/Conv2D" type="Convolution" version="opset1">
			<data auto_pad="same_upper" strides="1,1" dilations="1,1" pads_begin="0,0" pads_end="0,0" output_padding="0,0"/>
			<input>
				<port id="0">
					<dim>1</dim>
					<dim>128</dim>
					<dim>304</dim>
					<dim>304</dim>
				</port>
				<port id="1">
					<dim>64</dim>
					<dim>128</dim>
					<dim>1</dim>
					<dim>1</dim>
				</port>
			</input>
			<output>
				<port id="2" precision="FP32">
					<dim>1</dim>
					<dim>64</dim>
					<dim>304</dim>
					<dim>304</dim>
				</port>
			</output>
		</layer>
		<layer id="40" name="data_add_211092111422044/EltwiseUnsqueeze22318_const" type="Const" version="opset1">
			<data offset="242560" size="256" shape="1,64,1,1" element_type="f32"/>
			<output>
				<port id="1" precision="FP32">
					<dim>1</dim>
					<dim>64</dim>
					<dim>1</dim>
					<dim>1</dim>
				</port>
			</output>
		</layer>
		<layer id="41" name="StatefulPartitionedCall/model/batch_normalization_7/FusedBatchNormV3/variance/Fused_Add_" type="Add" version="opset1">
			<input>
				<port id="0">
					<dim>1</dim>
					<dim>64</dim>
					<dim>304</dim>
					<dim>304</dim>
				</port>
				<port id="1">
					<dim>1</dim>
					<dim>64</dim>
					<dim>1</dim>
					<dim>1</dim>
				</port>
			</input>
			<output>
				<port id="2" precision="FP32">
					<dim>1</dim>
					<dim>64</dim>
					<dim>304</dim>
					<dim>304</dim>
				</port>
			</output>
		</layer>
		<layer id="42" name="StatefulPartitionedCall/model/activation_7/mul" type="Mish" version="opset4">
			<input>
				<port id="0">
					<dim>1</dim>
					<dim>64</dim>
					<dim>304</dim>
					<dim>304</dim>
				</port>
			</input>
			<output>
				<port id="1" precision="FP32">
					<dim>1</dim>
					<dim>64</dim>
					<dim>304</dim>
					<dim>304</dim>
				</port>
			</output>
		</layer>
		<layer id="43" name="StatefulPartitionedCall/model/conv2d_8/Conv2D/Transpose26661_const" type="Const" version="opset1">
			<data offset="242816" size="294912" shape="128,64,3,3" element_type="f32"/>
			<output>
				<port id="1" precision="FP32">
					<dim>128</dim>
					<dim>64</dim>
					<dim>3</dim>
					<dim>3</dim>
				</port>
			</output>
		</layer>
		<layer id="44" name="StatefulPartitionedCall/model/conv2d_8/Conv2D" type="Convolution" version="opset1">
			<data strides="2,2" dilations="1,1" pads_begin="1,1" pads_end="0,0" output_padding="0,0"/>
			<input>
				<port id="0">
					<dim>1</dim>
					<dim>64</dim>
					<dim>304</dim>
					<dim>304</dim>
				</port>
				<port id="1">
					<dim>128</dim>
					<dim>64</dim>
					<dim>3</dim>
					<dim>3</dim>
				</port>
			</input>
			<output>
				<port id="2" precision="FP32">
					<dim>1</dim>
					<dim>128</dim>
					<dim>152</dim>
					<dim>152</dim>
				</port>
			</output>
		</layer>
		<layer id="45" name="data_add_211172112222046/EltwiseUnsqueeze22326_const" type="Const" version="opset1">
			<data offset="537728" size="512" shape="1,128,1,1" element_type="f32"/>
			<output>
				<port id="1" precision="FP32">
					<dim>1</dim>
					<dim>128</dim>
					<dim>1</dim>
					<dim>1</dim>
				</port>
			</output>
		</layer>
		<layer id="46" name="StatefulPartitionedCall/model/batch_normalization_8/FusedBatchNormV3/variance/Fused_Add_" type="Add" version="opset1">
			<input>
				<port id="0">
					<dim>1</dim>
					<dim>128</dim>
					<dim>152</dim>
					<dim>152</dim>
				</port>
				<port id="1">
					<dim>1</dim>
					<dim>128</dim>
					<dim>1</dim>
					<dim>1</dim>
				</port>
			</input>
			<output>
				<port id="2" precision="FP32">
					<dim>1</dim>
					<dim>128</dim>
					<dim>152</dim>
					<dim>152</dim>
				</port>
			</output>
		</layer>
		<layer id="47" name="StatefulPartitionedCall/model/activation_8/mul" type="Mish" version="opset4">
			<input>
				<port id="0">
					<dim>1</dim>
					<dim>128</dim>
					<dim>152</dim>
					<dim>152</dim>
				</port>
			</input>
			<output>
				<port id="1" precision="FP32">
					<dim>1</dim>
					<dim>128</dim>
					<dim>152</dim>
					<dim>152</dim>
				</port>
			</output>
		</layer>
		<layer id="48" name="StatefulPartitionedCall/model/conv2d_10/Conv2D/Transpose26665_const" type="Const" version="opset1">
			<data offset="538240" size="32768" shape="64,128,1,1" element_type="f32"/>
			<output>
				<port id="1" precision="FP32">
					<dim>64</dim>
					<dim>128</dim>
					<dim>1</dim>
					<dim>1</dim>
				</port>
			</output>
		</layer>
		<layer id="49" name="StatefulPartitionedCall/model/conv2d_10/Conv2D" type="Convolution" version="opset1">
			<data auto_pad="same_upper" strides="1,1" dilations="1,1" pads_begin="0,0" pads_end="0,0" output_padding="0,0"/>
			<input>
				<port id="0">
					<dim>1</dim>
					<dim>128</dim>
					<dim>152</dim>
					<dim>152</dim>
				</port>
				<port id="1">
					<dim>64</dim>
					<dim>128</dim>
					<dim>1</dim>
					<dim>1</dim>
				</port>
			</input>
			<output>
				<port id="2" precision="FP32">
					<dim>1</dim>
					<dim>64</dim>
					<dim>152</dim>
					<dim>152</dim>
				</port>
			</output>
		</layer>
		<layer id="50" name="data_add_211332113822050/EltwiseUnsqueeze22342_const" type="Const" version="opset1">
			<data offset="571008" size="256" shape="1,64,1,1" element_type="f32"/>
			<output>
				<port id="1" precision="FP32">
					<dim>1</dim>
					<dim>64</dim>
					<dim>1</dim>
					<dim>1</dim>
				</port>
			</output>
		</layer>
		<layer id="51" name="StatefulPartitionedCall/model/batch_normalization_10/FusedBatchNormV3/variance/Fused_Add_" type="Add" version="opset1">
			<input>
				<port id="0">
					<dim>1</dim>
					<dim>64</dim>
					<dim>152</dim>
					<dim>152</dim>
				</port>
				<port id="1">
					<dim>1</dim>
					<dim>64</dim>
					<dim>1</dim>
					<dim>1</dim>
				</port>
			</input>
			<output>
				<port id="2" precision="FP32">
					<dim>1</dim>
					<dim>64</dim>
					<dim>152</dim>
					<dim>152</dim>
				</port>
			</output>
		</layer>
		<layer id="52" name="StatefulPartitionedCall/model/activation_10/mul" type="Mish" version="opset4">
			<input>
				<port id="0">
					<dim>1</dim>
					<dim>64</dim>
					<dim>152</dim>
					<dim>152</dim>
				</port>
			</input>
			<output>
				<port id="1" precision="FP32">
					<dim>1</dim>
					<dim>64</dim>
					<dim>152</dim>
					<dim>152</dim>
				</port>
			</output>
		</layer>
		<layer id="53" name="StatefulPartitionedCall/model/conv2d_11/Conv2D/Transpose26669_const" type="Const" version="opset1">
			<data offset="571264" size="16384" shape="64,64,1,1" element_type="f32"/>
			<output>
				<port id="1" precision="FP32">
					<dim>64</dim>
					<dim>64</dim>
					<dim>1</dim>
					<dim>1</dim>
				</port>
			</output>
		</layer>
		<layer id="54" name="StatefulPartitionedCall/model/conv2d_11/Conv2D" type="Convolution" version="opset1">
			<data auto_pad="same_upper" strides="1,1" dilations="1,1" pads_begin="0,0" pads_end="0,0" output_padding="0,0"/>
			<input>
				<port id="0">
					<dim>1</dim>
					<dim>64</dim>
					<dim>152</dim>
					<dim>152</dim>
				</port>
				<port id="1">
					<dim>64</dim>
					<dim>64</dim>
					<dim>1</dim>
					<dim>1</dim>
				</port>
			</input>
			<output>
				<port id="2" precision="FP32">
					<dim>1</dim>
					<dim>64</dim>
					<dim>152</dim>
					<dim>152</dim>
				</port>
			</output>
		</layer>
		<layer id="55" name="data_add_211412114622052/EltwiseUnsqueeze22350_const" type="Const" version="opset1">
			<data offset="587648" size="256" shape="1,64,1,1" element_type="f32"/>
			<output>
				<port id="1" precision="FP32">
					<dim>1</dim>
					<dim>64</dim>
					<dim>1</dim>
					<dim>1</dim>
				</port>
			</output>
		</layer>
		<layer id="56" name="StatefulPartitionedCall/model/batch_normalization_11/FusedBatchNormV3/variance/Fused_Add_" type="Add" version="opset1">
			<input>
				<port id="0">
					<dim>1</dim>
					<dim>64</dim>
					<dim>152</dim>
					<dim>152</dim>
				</port>
				<port id="1">
					<dim>1</dim>
					<dim>64</dim>
					<dim>1</dim>
					<dim>1</dim>
				</port>
			</input>
			<output>
				<port id="2" precision="FP32">
					<dim>1</dim>
					<dim>64</dim>
					<dim>152</dim>
					<dim>152</dim>
				</port>
			</output>
		</layer>
		<layer id="57" name="StatefulPartitionedCall/model/activation_11/mul" type="Mish" version="opset4">
			<input>
				<port id="0">
					<dim>1</dim>
					<dim>64</dim>
					<dim>152</dim>
					<dim>152</dim>
				</port>
			</input>
			<output>
				<port id="1" precision="FP32">
					<dim>1</dim>
					<dim>64</dim>
					<dim>152</dim>
					<dim>152</dim>
				</port>
			</output>
		</layer>
		<layer id="58" name="StatefulPartitionedCall/model/conv2d_12/Conv2D/Transpose26673_const" type="Const" version="opset1">
			<data offset="587904" size="147456" shape="64,64,3,3" element_type="f32"/>
			<output>
				<port id="1" precision="FP32">
					<dim>64</dim>
					<dim>64</dim>
					<dim>3</dim>
					<dim>3</dim>
				</port>
			</output>
		</layer>
		<layer id="59" name="StatefulPartitionedCall/model/conv2d_12/Conv2D" type="Convolution" version="opset1">
			<data auto_pad="same_upper" strides="1,1" dilations="1,1" pads_begin="0,0" pads_end="0,0" output_padding="0,0"/>
			<input>
				<port id="0">
					<dim>1</dim>
					<dim>64</dim>
					<dim>152</dim>
					<dim>152</dim>
				</port>
				<port id="1">
					<dim>64</dim>
					<dim>64</dim>
					<dim>3</dim>
					<dim>3</dim>
				</port>
			</input>
			<output>
				<port id="2" precision="FP32">
					<dim>1</dim>
					<dim>64</dim>
					<dim>152</dim>
					<dim>152</dim>
				</port>
			</output>
		</layer>
		<layer id="60" name="data_add_211492115422054/EltwiseUnsqueeze22358_const" type="Const" version="opset1">
			<data offset="735360" size="256" shape="1,64,1,1" element_type="f32"/>
			<output>
				<port id="1" precision="FP32">
					<dim>1</dim>
					<dim>64</dim>
					<dim>1</dim>
					<dim>1</dim>
				</port>
			</output>
		</layer>
		<layer id="61" name="StatefulPartitionedCall/model/batch_normalization_12/FusedBatchNormV3/variance/Fused_Add_" type="Add" version="opset1">
			<input>
				<port id="0">
					<dim>1</dim>
					<dim>64</dim>
					<dim>152</dim>
					<dim>152</dim>
				</port>
				<port id="1">
					<dim>1</dim>
					<dim>64</dim>
					<dim>1</dim>
					<dim>1</dim>
				</port>
			</input>
			<output>
				<port id="2" precision="FP32">
					<dim>1</dim>
					<dim>64</dim>
					<dim>152</dim>
					<dim>152</dim>
				</port>
			</output>
		</layer>
		<layer id="62" name="StatefulPartitionedCall/model/activation_12/mul" type="Mish" version="opset4">
			<input>
				<port id="0">
					<dim>1</dim>
					<dim>64</dim>
					<dim>152</dim>
					<dim>152</dim>
				</port>
			</input>
			<output>
				<port id="1" precision="FP32">
					<dim>1</dim>
					<dim>64</dim>
					<dim>152</dim>
					<dim>152</dim>
				</port>
			</output>
		</layer>
		<layer id="63" name="StatefulPartitionedCall/model/add_1/add" type="Add" version="opset1">
			<input>
				<port id="0">
					<dim>1</dim>
					<dim>64</dim>
					<dim>152</dim>
					<dim>152</dim>
				</port>
				<port id="1">
					<dim>1</dim>
					<dim>64</dim>
					<dim>152</dim>
					<dim>152</dim>
				</port>
			</input>
			<output>
				<port id="2" precision="FP32">
					<dim>1</dim>
					<dim>64</dim>
					<dim>152</dim>
					<dim>152</dim>
				</port>
			</output>
		</layer>
		<layer id="64" name="StatefulPartitionedCall/model/conv2d_13/Conv2D/Transpose26677_const" type="Const" version="opset1">
			<data offset="735616" size="16384" shape="64,64,1,1" element_type="f32"/>
			<output>
				<port id="1" precision="FP32">
					<dim>64</dim>
					<dim>64</dim>
					<dim>1</dim>
					<dim>1</dim>
				</port>
			</output>
		</layer>
		<layer id="65" name="StatefulPartitionedCall/model/conv2d_13/Conv2D" type="Convolution" version="opset1">
			<data auto_pad="same_upper" strides="1,1" dilations="1,1" pads_begin="0,0" pads_end="0,0" output_padding="0,0"/>
			<input>
				<port id="0">
					<dim>1</dim>
					<dim>64</dim>
					<dim>152</dim>
					<dim>152</dim>
				</port>
				<port id="1">
					<dim>64</dim>
					<dim>64</dim>
					<dim>1</dim>
					<dim>1</dim>
				</port>
			</input>
			<output>
				<port id="2" precision="FP32">
					<dim>1</dim>
					<dim>64</dim>
					<dim>152</dim>
					<dim>152</dim>
				</port>
			</output>
		</layer>
		<layer id="66" name="data_add_211572116222056/EltwiseUnsqueeze22366_const" type="Const" version="opset1">
			<data offset="752000" size="256" shape="1,64,1,1" element_type="f32"/>
			<output>
				<port id="1" precision="FP32">
					<dim>1</dim>
					<dim>64</dim>
					<dim>1</dim>
					<dim>1</dim>
				</port>
			</output>
		</layer>
		<layer id="67" name="StatefulPartitionedCall/model/batch_normalization_13/FusedBatchNormV3/variance/Fused_Add_" type="Add" version="opset1">
			<input>
				<port id="0">
					<dim>1</dim>
					<dim>64</dim>
					<dim>152</dim>
					<dim>152</dim>
				</port>
				<port id="1">
					<dim>1</dim>
					<dim>64</dim>
					<dim>1</dim>
					<dim>1</dim>
				</port>
			</input>
			<output>
				<port id="2" precision="FP32">
					<dim>1</dim>
					<dim>64</dim>
					<dim>152</dim>
					<dim>152</dim>
				</port>
			</output>
		</layer>
		<layer id="68" name="StatefulPartitionedCall/model/activation_13/mul" type="Mish" version="opset4">
			<input>
				<port id="0">
					<dim>1</dim>
					<dim>64</dim>
					<dim>152</dim>
					<dim>152</dim>
				</port>
			</input>
			<output>
				<port id="1" precision="FP32">
					<dim>1</dim>
					<dim>64</dim>
					<dim>152</dim>
					<dim>152</dim>
				</port>
			</output>
		</layer>
		<layer id="69" name="StatefulPartitionedCall/model/conv2d_14/Conv2D/Transpose26681_const" type="Const" version="opset1">
			<data offset="752256" size="147456" shape="64,64,3,3" element_type="f32"/>
			<output>
				<port id="1" precision="FP32">
					<dim>64</dim>
					<dim>64</dim>
					<dim>3</dim>
					<dim>3</dim>
				</port>
			</output>
		</layer>
		<layer id="70" name="StatefulPartitionedCall/model/conv2d_14/Conv2D" type="Convolution" version="opset1">
			<data auto_pad="same_upper" strides="1,1" dilations="1,1" pads_begin="0,0" pads_end="0,0" output_padding="0,0"/>
			<input>
				<port id="0">
					<dim>1</dim>
					<dim>64</dim>
					<dim>152</dim>
					<dim>152</dim>
				</port>
				<port id="1">
					<dim>64</dim>
					<dim>64</dim>
					<dim>3</dim>
					<dim>3</dim>
				</port>
			</input>
			<output>
				<port id="2" precision="FP32">
					<dim>1</dim>
					<dim>64</dim>
					<dim>152</dim>
					<dim>152</dim>
				</port>
			</output>
		</layer>
		<layer id="71" name="data_add_211652117022058/EltwiseUnsqueeze22374_const" type="Const" version="opset1">
			<data offset="899712" size="256" shape="1,64,1,1" element_type="f32"/>
			<output>
				<port id="1" precision="FP32">
					<dim>1</dim>
					<dim>64</dim>
					<dim>1</dim>
					<dim>1</dim>
				</port>
			</output>
		</layer>
		<layer id="72" name="StatefulPartitionedCall/model/batch_normalization_14/FusedBatchNormV3/variance/Fused_Add_" type="Add" version="opset1">
			<input>
				<port id="0">
					<dim>1</dim>
					<dim>64</dim>
					<dim>152</dim>
					<dim>152</dim>
				</port>
				<port id="1">
					<dim>1</dim>
					<dim>64</dim>
					<dim>1</dim>
					<dim>1</dim>
				</port>
			</input>
			<output>
				<port id="2" precision="FP32">
					<dim>1</dim>
					<dim>64</dim>
					<dim>152</dim>
					<dim>152</dim>
				</port>
			</output>
		</layer>
		<layer id="73" name="StatefulPartitionedCall/model/activation_14/mul" type="Mish" version="opset4">
			<input>
				<port id="0">
					<dim>1</dim>
					<dim>64</dim>
					<dim>152</dim>
					<dim>152</dim>
				</port>
			</input>
			<output>
				<port id="1" precision="FP32">
					<dim>1</dim>
					<dim>64</dim>
					<dim>152</dim>
					<dim>152</dim>
				</port>
			</output>
		</layer>
		<layer id="74" name="StatefulPartitionedCall/model/add_2/add" type="Add" version="opset1">
			<input>
				<port id="0">
					<dim>1</dim>
					<dim>64</dim>
					<dim>152</dim>
					<dim>152</dim>
				</port>
				<port id="1">
					<dim>1</dim>
					<dim>64</dim>
					<dim>152</dim>
					<dim>152</dim>
				</port>
			</input>
			<output>
				<port id="2" precision="FP32">
					<dim>1</dim>
					<dim>64</dim>
					<dim>152</dim>
					<dim>152</dim>
				</port>
			</output>
		</layer>
		<layer id="75" name="StatefulPartitionedCall/model/conv2d_15/Conv2D/Transpose26685_const" type="Const" version="opset1">
			<data offset="899968" size="16384" shape="64,64,1,1" element_type="f32"/>
			<output>
				<port id="1" precision="FP32">
					<dim>64</dim>
					<dim>64</dim>
					<dim>1</dim>
					<dim>1</dim>
				</port>
			</output>
		</layer>
		<layer id="76" name="StatefulPartitionedCall/model/conv2d_15/Conv2D" type="Convolution" version="opset1">
			<data auto_pad="same_upper" strides="1,1" dilations="1,1" pads_begin="0,0" pads_end="0,0" output_padding="0,0"/>
			<input>
				<port id="0">
					<dim>1</dim>
					<dim>64</dim>
					<dim>152</dim>
					<dim>152</dim>
				</port>
				<port id="1">
					<dim>64</dim>
					<dim>64</dim>
					<dim>1</dim>
					<dim>1</dim>
				</port>
			</input>
			<output>
				<port id="2" precision="FP32">
					<dim>1</dim>
					<dim>64</dim>
					<dim>152</dim>
					<dim>152</dim>
				</port>
			</output>
		</layer>
		<layer id="77" name="data_add_211732117822060/EltwiseUnsqueeze22382_const" type="Const" version="opset1">
			<data offset="916352" size="256" shape="1,64,1,1" element_type="f32"/>
			<output>
				<port id="1" precision="FP32">
					<dim>1</dim>
					<dim>64</dim>
					<dim>1</dim>
					<dim>1</dim>
				</port>
			</output>
		</layer>
		<layer id="78" name="StatefulPartitionedCall/model/batch_normalization_15/FusedBatchNormV3/variance/Fused_Add_" type="Add" version="opset1">
			<input>
				<port id="0">
					<dim>1</dim>
					<dim>64</dim>
					<dim>152</dim>
					<dim>152</dim>
				</port>
				<port id="1">
					<dim>1</dim>
					<dim>64</dim>
					<dim>1</dim>
					<dim>1</dim>
				</port>
			</input>
			<output>
				<port id="2" precision="FP32">
					<dim>1</dim>
					<dim>64</dim>
					<dim>152</dim>
					<dim>152</dim>
				</port>
			</output>
		</layer>
		<layer id="79" name="StatefulPartitionedCall/model/activation_15/mul" type="Mish" version="opset4">
			<input>
				<port id="0">
					<dim>1</dim>
					<dim>64</dim>
					<dim>152</dim>
					<dim>152</dim>
				</port>
			</input>
			<output>
				<port id="1" precision="FP32">
					<dim>1</dim>
					<dim>64</dim>
					<dim>152</dim>
					<dim>152</dim>
				</port>
			</output>
		</layer>
		<layer id="80" name="StatefulPartitionedCall/model/conv2d_9/Conv2D/Transpose26689_const" type="Const" version="opset1">
			<data offset="916608" size="32768" shape="64,128,1,1" element_type="f32"/>
			<output>
				<port id="1" precision="FP32">
					<dim>64</dim>
					<dim>128</dim>
					<dim>1</dim>
					<dim>1</dim>
				</port>
			</output>
		</layer>
		<layer id="81" name="StatefulPartitionedCall/model/conv2d_9/Conv2D" type="Convolution" version="opset1">
			<data auto_pad="same_upper" strides="1,1" dilations="1,1" pads_begin="0,0" pads_end="0,0" output_padding="0,0"/>
			<input>
				<port id="0">
					<dim>1</dim>
					<dim>128</dim>
					<dim>152</dim>
					<dim>152</dim>
				</port>
				<port id="1">
					<dim>64</dim>
					<dim>128</dim>
					<dim>1</dim>
					<dim>1</dim>
				</port>
			</input>
			<output>
				<port id="2" precision="FP32">
					<dim>1</dim>
					<dim>64</dim>
					<dim>152</dim>
					<dim>152</dim>
				</port>
			</output>
		</layer>
		<layer id="82" name="data_add_211252113022048/EltwiseUnsqueeze22334_const" type="Const" version="opset1">
			<data offset="949376" size="256" shape="1,64,1,1" element_type="f32"/>
			<output>
				<port id="1" precision="FP32">
					<dim>1</dim>
					<dim>64</dim>
					<dim>1</dim>
					<dim>1</dim>
				</port>
			</output>
		</layer>
		<layer id="83" name="StatefulPartitionedCall/model/batch_normalization_9/FusedBatchNormV3/variance/Fused_Add_" type="Add" version="opset1">
			<input>
				<port id="0">
					<dim>1</dim>
					<dim>64</dim>
					<dim>152</dim>
					<dim>152</dim>
				</port>
				<port id="1">
					<dim>1</dim>
					<dim>64</dim>
					<dim>1</dim>
					<dim>1</dim>
				</port>
			</input>
			<output>
				<port id="2" precision="FP32">
					<dim>1</dim>
					<dim>64</dim>
					<dim>152</dim>
					<dim>152</dim>
				</port>
			</output>
		</layer>
		<layer id="84" name="StatefulPartitionedCall/model/activation_9/mul" type="Mish" version="opset4">
			<input>
				<port id="0">
					<dim>1</dim>
					<dim>64</dim>
					<dim>152</dim>
					<dim>152</dim>
				</port>
			</input>
			<output>
				<port id="1" precision="FP32">
					<dim>1</dim>
					<dim>64</dim>
					<dim>152</dim>
					<dim>152</dim>
				</port>
			</output>
		</layer>
		<layer id="85" name="StatefulPartitionedCall/model/concatenate_1/concat" type="Concat" version="opset1">
			<data axis="1"/>
			<input>
				<port id="0">
					<dim>1</dim>
					<dim>64</dim>
					<dim>152</dim>
					<dim>152</dim>
				</port>
				<port id="1">
					<dim>1</dim>
					<dim>64</dim>
					<dim>152</dim>
					<dim>152</dim>
				</port>
			</input>
			<output>
				<port id="2" precision="FP32">
					<dim>1</dim>
					<dim>128</dim>
					<dim>152</dim>
					<dim>152</dim>
				</port>
			</output>
		</layer>
		<layer id="86" name="StatefulPartitionedCall/model/conv2d_16/Conv2D/Transpose26693_const" type="Const" version="opset1">
			<data offset="949632" size="65536" shape="128,128,1,1" element_type="f32"/>
			<output>
				<port id="1" precision="FP32">
					<dim>128</dim>
					<dim>128</dim>
					<dim>1</dim>
					<dim>1</dim>
				</port>
			</output>
		</layer>
		<layer id="87" name="StatefulPartitionedCall/model/conv2d_16/Conv2D" type="Convolution" version="opset1">
			<data auto_pad="same_upper" strides="1,1" dilations="1,1" pads_begin="0,0" pads_end="0,0" output_padding="0,0"/>
			<input>
				<port id="0">
					<dim>1</dim>
					<dim>128</dim>
					<dim>152</dim>
					<dim>152</dim>
				</port>
				<port id="1">
					<dim>128</dim>
					<dim>128</dim>
					<dim>1</dim>
					<dim>1</dim>
				</port>
			</input>
			<output>
				<port id="2" precision="FP32">
					<dim>1</dim>
					<dim>128</dim>
					<dim>152</dim>
					<dim>152</dim>
				</port>
			</output>
		</layer>
		<layer id="88" name="data_add_211812118622062/EltwiseUnsqueeze22390_const" type="Const" version="opset1">
			<data offset="1015168" size="512" shape="1,128,1,1" element_type="f32"/>
			<output>
				<port id="1" precision="FP32">
					<dim>1</dim>
					<dim>128</dim>
					<dim>1</dim>
					<dim>1</dim>
				</port>
			</output>
		</layer>
		<layer id="89" name="StatefulPartitionedCall/model/batch_normalization_16/FusedBatchNormV3/variance/Fused_Add_" type="Add" version="opset1">
			<input>
				<port id="0">
					<dim>1</dim>
					<dim>128</dim>
					<dim>152</dim>
					<dim>152</dim>
				</port>
				<port id="1">
					<dim>1</dim>
					<dim>128</dim>
					<dim>1</dim>
					<dim>1</dim>
				</port>
			</input>
			<output>
				<port id="2" precision="FP32">
					<dim>1</dim>
					<dim>128</dim>
					<dim>152</dim>
					<dim>152</dim>
				</port>
			</output>
		</layer>
		<layer id="90" name="StatefulPartitionedCall/model/activation_16/mul" type="Mish" version="opset4">
			<input>
				<port id="0">
					<dim>1</dim>
					<dim>128</dim>
					<dim>152</dim>
					<dim>152</dim>
				</port>
			</input>
			<output>
				<port id="1" precision="FP32">
					<dim>1</dim>
					<dim>128</dim>
					<dim>152</dim>
					<dim>152</dim>
				</port>
			</output>
		</layer>
		<layer id="91" name="StatefulPartitionedCall/model/conv2d_17/Conv2D/Transpose26697_const" type="Const" version="opset1">
			<data offset="1015680" size="1179648" shape="256,128,3,3" element_type="f32"/>
			<output>
				<port id="1" precision="FP32">
					<dim>256</dim>
					<dim>128</dim>
					<dim>3</dim>
					<dim>3</dim>
				</port>
			</output>
		</layer>
		<layer id="92" name="StatefulPartitionedCall/model/conv2d_17/Conv2D" type="Convolution" version="opset1">
			<data strides="2,2" dilations="1,1" pads_begin="1,1" pads_end="0,0" output_padding="0,0"/>
			<input>
				<port id="0">
					<dim>1</dim>
					<dim>128</dim>
					<dim>152</dim>
					<dim>152</dim>
				</port>
				<port id="1">
					<dim>256</dim>
					<dim>128</dim>
					<dim>3</dim>
					<dim>3</dim>
				</port>
			</input>
			<output>
				<port id="2" precision="FP32">
					<dim>1</dim>
					<dim>256</dim>
					<dim>76</dim>
					<dim>76</dim>
				</port>
			</output>
		</layer>
		<layer id="93" name="data_add_211892119422064/EltwiseUnsqueeze22398_const" type="Const" version="opset1">
			<data offset="2195328" size="1024" shape="1,256,1,1" element_type="f32"/>
			<output>
				<port id="1" precision="FP32">
					<dim>1</dim>
					<dim>256</dim>
					<dim>1</dim>
					<dim>1</dim>
				</port>
			</output>
		</layer>
		<layer id="94" name="StatefulPartitionedCall/model/batch_normalization_17/FusedBatchNormV3/variance/Fused_Add_" type="Add" version="opset1">
			<input>
				<port id="0">
					<dim>1</dim>
					<dim>256</dim>
					<dim>76</dim>
					<dim>76</dim>
				</port>
				<port id="1">
					<dim>1</dim>
					<dim>256</dim>
					<dim>1</dim>
					<dim>1</dim>
				</port>
			</input>
			<output>
				<port id="2" precision="FP32">
					<dim>1</dim>
					<dim>256</dim>
					<dim>76</dim>
					<dim>76</dim>
				</port>
			</output>
		</layer>
		<layer id="95" name="StatefulPartitionedCall/model/activation_17/mul" type="Mish" version="opset4">
			<input>
				<port id="0">
					<dim>1</dim>
					<dim>256</dim>
					<dim>76</dim>
					<dim>76</dim>
				</port>
			</input>
			<output>
				<port id="1" precision="FP32">
					<dim>1</dim>
					<dim>256</dim>
					<dim>76</dim>
					<dim>76</dim>
				</port>
			</output>
		</layer>
		<layer id="96" name="StatefulPartitionedCall/model/conv2d_19/Conv2D/Transpose26701_const" type="Const" version="opset1">
			<data offset="2196352" size="131072" shape="128,256,1,1" element_type="f32"/>
			<output>
				<port id="1" precision="FP32">
					<dim>128</dim>
					<dim>256</dim>
					<dim>1</dim>
					<dim>1</dim>
				</port>
			</output>
		</layer>
		<layer id="97" name="StatefulPartitionedCall/model/conv2d_19/Conv2D" type="Convolution" version="opset1">
			<data auto_pad="same_upper" strides="1,1" dilations="1,1" pads_begin="0,0" pads_end="0,0" output_padding="0,0"/>
			<input>
				<port id="0">
					<dim>1</dim>
					<dim>256</dim>
					<dim>76</dim>
					<dim>76</dim>
				</port>
				<port id="1">
					<dim>128</dim>
					<dim>256</dim>
					<dim>1</dim>
					<dim>1</dim>
				</port>
			</input>
			<output>
				<port id="2" precision="FP32">
					<dim>1</dim>
					<dim>128</dim>
					<dim>76</dim>
					<dim>76</dim>
				</port>
			</output>
		</layer>
		<layer id="98" name="data_add_212052121022068/EltwiseUnsqueeze22414_const" type="Const" version="opset1">
			<data offset="2327424" size="512" shape="1,128,1,1" element_type="f32"/>
			<output>
				<port id="1" precision="FP32">
					<dim>1</dim>
					<dim>128</dim>
					<dim>1</dim>
					<dim>1</dim>
				</port>
			</output>
		</layer>
		<layer id="99" name="StatefulPartitionedCall/model/batch_normalization_19/FusedBatchNormV3/variance/Fused_Add_" type="Add" version="opset1">
			<input>
				<port id="0">
					<dim>1</dim>
					<dim>128</dim>
					<dim>76</dim>
					<dim>76</dim>
				</port>
				<port id="1">
					<dim>1</dim>
					<dim>128</dim>
					<dim>1</dim>
					<dim>1</dim>
				</port>
			</input>
			<output>
				<port id="2" precision="FP32">
					<dim>1</dim>
					<dim>128</dim>
					<dim>76</dim>
					<dim>76</dim>
				</port>
			</output>
		</layer>
		<layer id="100" name="StatefulPartitionedCall/model/activation_19/mul" type="Mish" version="opset4">
			<input>
				<port id="0">
					<dim>1</dim>
					<dim>128</dim>
					<dim>76</dim>
					<dim>76</dim>
				</port>
			</input>
			<output>
				<port id="1" precision="FP32">
					<dim>1</dim>
					<dim>128</dim>
					<dim>76</dim>
					<dim>76</dim>
				</port>
			</output>
		</layer>
		<layer id="101" name="StatefulPartitionedCall/model/conv2d_20/Conv2D/Transpose26705_const" type="Const" version="opset1">
			<data offset="2327936" size="65536" shape="128,128,1,1" element_type="f32"/>
			<output>
				<port id="1" precision="FP32">
					<dim>128</dim>
					<dim>128</dim>
					<dim>1</dim>
					<dim>1</dim>
				</port>
			</output>
		</layer>
		<layer id="102" name="StatefulPartitionedCall/model/conv2d_20/Conv2D" type="Convolution" version="opset1">
			<data auto_pad="same_upper" strides="1,1" dilations="1,1" pads_begin="0,0" pads_end="0,0" output_padding="0,0"/>
			<input>
				<port id="0">
					<dim>1</dim>
					<dim>128</dim>
					<dim>76</dim>
					<dim>76</dim>
				</port>
				<port id="1">
					<dim>128</dim>
					<dim>128</dim>
					<dim>1</dim>
					<dim>1</dim>
				</port>
			</input>
			<output>
				<port id="2" precision="FP32">
					<dim>1</dim>
					<dim>128</dim>
					<dim>76</dim>
					<dim>76</dim>
				</port>
			</output>
		</layer>
		<layer id="103" name="data_add_212132121822070/EltwiseUnsqueeze22422_const" type="Const" version="opset1">
			<data offset="2393472" size="512" shape="1,128,1,1" element_type="f32"/>
			<output>
				<port id="1" precision="FP32">
					<dim>1</dim>
					<dim>128</dim>
					<dim>1</dim>
					<dim>1</dim>
				</port>
			</output>
		</layer>
		<layer id="104" name="StatefulPartitionedCall/model/batch_normalization_20/FusedBatchNormV3/variance/Fused_Add_" type="Add" version="opset1">
			<input>
				<port id="0">
					<dim>1</dim>
					<dim>128</dim>
					<dim>76</dim>
					<dim>76</dim>
				</port>
				<port id="1">
					<dim>1</dim>
					<dim>128</dim>
					<dim>1</dim>
					<dim>1</dim>
				</port>
			</input>
			<output>
				<port id="2" precision="FP32">
					<dim>1</dim>
					<dim>128</dim>
					<dim>76</dim>
					<dim>76</dim>
				</port>
			</output>
		</layer>
		<layer id="105" name="StatefulPartitionedCall/model/activation_20/mul" type="Mish" version="opset4">
			<input>
				<port id="0">
					<dim>1</dim>
					<dim>128</dim>
					<dim>76</dim>
					<dim>76</dim>
				</port>
			</input>
			<output>
				<port id="1" precision="FP32">
					<dim>1</dim>
					<dim>128</dim>
					<dim>76</dim>
					<dim>76</dim>
				</port>
			</output>
		</layer>
		<layer id="106" name="StatefulPartitionedCall/model/conv2d_21/Conv2D/Transpose26709_const" type="Const" version="opset1">
			<data offset="2393984" size="589824" shape="128,128,3,3" element_type="f32"/>
			<output>
				<port id="1" precision="FP32">
					<dim>128</dim>
					<dim>128</dim>
					<dim>3</dim>
					<dim>3</dim>
				</port>
			</output>
		</layer>
		<layer id="107" name="StatefulPartitionedCall/model/conv2d_21/Conv2D" type="Convolution" version="opset1">
			<data auto_pad="same_upper" strides="1,1" dilations="1,1" pads_begin="0,0" pads_end="0,0" output_padding="0,0"/>
			<input>
				<port id="0">
					<dim>1</dim>
					<dim>128</dim>
					<dim>76</dim>
					<dim>76</dim>
				</port>
				<port id="1">
					<dim>128</dim>
					<dim>128</dim>
					<dim>3</dim>
					<dim>3</dim>
				</port>
			</input>
			<output>
				<port id="2" precision="FP32">
					<dim>1</dim>
					<dim>128</dim>
					<dim>76</dim>
					<dim>76</dim>
				</port>
			</output>
		</layer>
		<layer id="108" name="data_add_212212122622072/EltwiseUnsqueeze22430_const" type="Const" version="opset1">
			<data offset="2983808" size="512" shape="1,128,1,1" element_type="f32"/>
			<output>
				<port id="1" precision="FP32">
					<dim>1</dim>
					<dim>128</dim>
					<dim>1</dim>
					<dim>1</dim>
				</port>
			</output>
		</layer>
		<layer id="109" name="StatefulPartitionedCall/model/batch_normalization_21/FusedBatchNormV3/variance/Fused_Add_" type="Add" version="opset1">
			<input>
				<port id="0">
					<dim>1</dim>
					<dim>128</dim>
					<dim>76</dim>
					<dim>76</dim>
				</port>
				<port id="1">
					<dim>1</dim>
					<dim>128</dim>
					<dim>1</dim>
					<dim>1</dim>
				</port>
			</input>
			<output>
				<port id="2" precision="FP32">
					<dim>1</dim>
					<dim>128</dim>
					<dim>76</dim>
					<dim>76</dim>
				</port>
			</output>
		</layer>
		<layer id="110" name="StatefulPartitionedCall/model/activation_21/mul" type="Mish" version="opset4">
			<input>
				<port id="0">
					<dim>1</dim>
					<dim>128</dim>
					<dim>76</dim>
					<dim>76</dim>
				</port>
			</input>
			<output>
				<port id="1" precision="FP32">
					<dim>1</dim>
					<dim>128</dim>
					<dim>76</dim>
					<dim>76</dim>
				</port>
			</output>
		</layer>
		<layer id="111" name="StatefulPartitionedCall/model/add_3/add" type="Add" version="opset1">
			<input>
				<port id="0">
					<dim>1</dim>
					<dim>128</dim>
					<dim>76</dim>
					<dim>76</dim>
				</port>
				<port id="1">
					<dim>1</dim>
					<dim>128</dim>
					<dim>76</dim>
					<dim>76</dim>
				</port>
			</input>
			<output>
				<port id="2" precision="FP32">
					<dim>1</dim>
					<dim>128</dim>
					<dim>76</dim>
					<dim>76</dim>
				</port>
			</output>
		</layer>
		<layer id="112" name="StatefulPartitionedCall/model/conv2d_22/Conv2D/Transpose26713_const" type="Const" version="opset1">
			<data offset="2984320" size="65536" shape="128,128,1,1" element_type="f32"/>
			<output>
				<port id="1" precision="FP32">
					<dim>128</dim>
					<dim>128</dim>
					<dim>1</dim>
					<dim>1</dim>
				</port>
			</output>
		</layer>
		<layer id="113" name="StatefulPartitionedCall/model/conv2d_22/Conv2D" type="Convolution" version="opset1">
			<data auto_pad="same_upper" strides="1,1" dilations="1,1" pads_begin="0,0" pads_end="0,0" output_padding="0,0"/>
			<input>
				<port id="0">
					<dim>1</dim>
					<dim>128</dim>
					<dim>76</dim>
					<dim>76</dim>
				</port>
				<port id="1">
					<dim>128</dim>
					<dim>128</dim>
					<dim>1</dim>
					<dim>1</dim>
				</port>
			</input>
			<output>
				<port id="2" precision="FP32">
					<dim>1</dim>
					<dim>128</dim>
					<dim>76</dim>
					<dim>76</dim>
				</port>
			</output>
		</layer>
		<layer id="114" name="data_add_212292123422074/EltwiseUnsqueeze22438_const" type="Const" version="opset1">
			<data offset="3049856" size="512" shape="1,128,1,1" element_type="f32"/>
			<output>
				<port id="1" precision="FP32">
					<dim>1</dim>
					<dim>128</dim>
					<dim>1</dim>
					<dim>1</dim>
				</port>
			</output>
		</layer>
		<layer id="115" name="StatefulPartitionedCall/model/batch_normalization_22/FusedBatchNormV3/variance/Fused_Add_" type="Add" version="opset1">
			<input>
				<port id="0">
					<dim>1</dim>
					<dim>128</dim>
					<dim>76</dim>
					<dim>76</dim>
				</port>
				<port id="1">
					<dim>1</dim>
					<dim>128</dim>
					<dim>1</dim>
					<dim>1</dim>
				</port>
			</input>
			<output>
				<port id="2" precision="FP32">
					<dim>1</dim>
					<dim>128</dim>
					<dim>76</dim>
					<dim>76</dim>
				</port>
			</output>
		</layer>
		<layer id="116" name="StatefulPartitionedCall/model/activation_22/mul" type="Mish" version="opset4">
			<input>
				<port id="0">
					<dim>1</dim>
					<dim>128</dim>
					<dim>76</dim>
					<dim>76</dim>
				</port>
			</input>
			<output>
				<port id="1" precision="FP32">
					<dim>1</dim>
					<dim>128</dim>
					<dim>76</dim>
					<dim>76</dim>
				</port>
			</output>
		</layer>
		<layer id="117" name="StatefulPartitionedCall/model/conv2d_23/Conv2D/Transpose26717_const" type="Const" version="opset1">
			<data offset="3050368" size="589824" shape="128,128,3,3" element_type="f32"/>
			<output>
				<port id="1" precision="FP32">
					<dim>128</dim>
					<dim>128</dim>
					<dim>3</dim>
					<dim>3</dim>
				</port>
			</output>
		</layer>
		<layer id="118" name="StatefulPartitionedCall/model/conv2d_23/Conv2D" type="Convolution" version="opset1">
			<data auto_pad="same_upper" strides="1,1" dilations="1,1" pads_begin="0,0" pads_end="0,0" output_padding="0,0"/>
			<input>
				<port id="0">
					<dim>1</dim>
					<dim>128</dim>
					<dim>76</dim>
					<dim>76</dim>
				</port>
				<port id="1">
					<dim>128</dim>
					<dim>128</dim>
					<dim>3</dim>
					<dim>3</dim>
				</port>
			</input>
			<output>
				<port id="2" precision="FP32">
					<dim>1</dim>
					<dim>128</dim>
					<dim>76</dim>
					<dim>76</dim>
				</port>
			</output>
		</layer>
		<layer id="119" name="data_add_212372124222076/EltwiseUnsqueeze22446_const" type="Const" version="opset1">
			<data offset="3640192" size="512" shape="1,128,1,1" element_type="f32"/>
			<output>
				<port id="1" precision="FP32">
					<dim>1</dim>
					<dim>128</dim>
					<dim>1</dim>
					<dim>1</dim>
				</port>
			</output>
		</layer>
		<layer id="120" name="StatefulPartitionedCall/model/batch_normalization_23/FusedBatchNormV3/variance/Fused_Add_" type="Add" version="opset1">
			<input>
				<port id="0">
					<dim>1</dim>
					<dim>128</dim>
					<dim>76</dim>
					<dim>76</dim>
				</port>
				<port id="1">
					<dim>1</dim>
					<dim>128</dim>
					<dim>1</dim>
					<dim>1</dim>
				</port>
			</input>
			<output>
				<port id="2" precision="FP32">
					<dim>1</dim>
					<dim>128</dim>
					<dim>76</dim>
					<dim>76</dim>
				</port>
			</output>
		</layer>
		<layer id="121" name="StatefulPartitionedCall/model/activation_23/mul" type="Mish" version="opset4">
			<input>
				<port id="0">
					<dim>1</dim>
					<dim>128</dim>
					<dim>76</dim>
					<dim>76</dim>
				</port>
			</input>
			<output>
				<port id="1" precision="FP32">
					<dim>1</dim>
					<dim>128</dim>
					<dim>76</dim>
					<dim>76</dim>
				</port>
			</output>
		</layer>
		<layer id="122" name="StatefulPartitionedCall/model/add_4/add" type="Add" version="opset1">
			<input>
				<port id="0">
					<dim>1</dim>
					<dim>128</dim>
					<dim>76</dim>
					<dim>76</dim>
				</port>
				<port id="1">
					<dim>1</dim>
					<dim>128</dim>
					<dim>76</dim>
					<dim>76</dim>
				</port>
			</input>
			<output>
				<port id="2" precision="FP32">
					<dim>1</dim>
					<dim>128</dim>
					<dim>76</dim>
					<dim>76</dim>
				</port>
			</output>
		</layer>
		<layer id="123" name="StatefulPartitionedCall/model/conv2d_24/Conv2D/Transpose26721_const" type="Const" version="opset1">
			<data offset="3640704" size="65536" shape="128,128,1,1" element_type="f32"/>
			<output>
				<port id="1" precision="FP32">
					<dim>128</dim>
					<dim>128</dim>
					<dim>1</dim>
					<dim>1</dim>
				</port>
			</output>
		</layer>
		<layer id="124" name="StatefulPartitionedCall/model/conv2d_24/Conv2D" type="Convolution" version="opset1">
			<data auto_pad="same_upper" strides="1,1" dilations="1,1" pads_begin="0,0" pads_end="0,0" output_padding="0,0"/>
			<input>
				<port id="0">
					<dim>1</dim>
					<dim>128</dim>
					<dim>76</dim>
					<dim>76</dim>
				</port>
				<port id="1">
					<dim>128</dim>
					<dim>128</dim>
					<dim>1</dim>
					<dim>1</dim>
				</port>
			</input>
			<output>
				<port id="2" precision="FP32">
					<dim>1</dim>
					<dim>128</dim>
					<dim>76</dim>
					<dim>76</dim>
				</port>
			</output>
		</layer>
		<layer id="125" name="data_add_212452125022078/EltwiseUnsqueeze22454_const" type="Const" version="opset1">
			<data offset="3706240" size="512" shape="1,128,1,1" element_type="f32"/>
			<output>
				<port id="1" precision="FP32">
					<dim>1</dim>
					<dim>128</dim>
					<dim>1</dim>
					<dim>1</dim>
				</port>
			</output>
		</layer>
		<layer id="126" name="StatefulPartitionedCall/model/batch_normalization_24/FusedBatchNormV3/variance/Fused_Add_" type="Add" version="opset1">
			<input>
				<port id="0">
					<dim>1</dim>
					<dim>128</dim>
					<dim>76</dim>
					<dim>76</dim>
				</port>
				<port id="1">
					<dim>1</dim>
					<dim>128</dim>
					<dim>1</dim>
					<dim>1</dim>
				</port>
			</input>
			<output>
				<port id="2" precision="FP32">
					<dim>1</dim>
					<dim>128</dim>
					<dim>76</dim>
					<dim>76</dim>
				</port>
			</output>
		</layer>
		<layer id="127" name="StatefulPartitionedCall/model/activation_24/mul" type="Mish" version="opset4">
			<input>
				<port id="0">
					<dim>1</dim>
					<dim>128</dim>
					<dim>76</dim>
					<dim>76</dim>
				</port>
			</input>
			<output>
				<port id="1" precision="FP32">
					<dim>1</dim>
					<dim>128</dim>
					<dim>76</dim>
					<dim>76</dim>
				</port>
			</output>
		</layer>
		<layer id="128" name="StatefulPartitionedCall/model/conv2d_25/Conv2D/Transpose26725_const" type="Const" version="opset1">
			<data offset="3706752" size="589824" shape="128,128,3,3" element_type="f32"/>
			<output>
				<port id="1" precision="FP32">
					<dim>128</dim>
					<dim>128</dim>
					<dim>3</dim>
					<dim>3</dim>
				</port>
			</output>
		</layer>
		<layer id="129" name="StatefulPartitionedCall/model/conv2d_25/Conv2D" type="Convolution" version="opset1">
			<data auto_pad="same_upper" strides="1,1" dilations="1,1" pads_begin="0,0" pads_end="0,0" output_padding="0,0"/>
			<input>
				<port id="0">
					<dim>1</dim>
					<dim>128</dim>
					<dim>76</dim>
					<dim>76</dim>
				</port>
				<port id="1">
					<dim>128</dim>
					<dim>128</dim>
					<dim>3</dim>
					<dim>3</dim>
				</port>
			</input>
			<output>
				<port id="2" precision="FP32">
					<dim>1</dim>
					<dim>128</dim>
					<dim>76</dim>
					<dim>76</dim>
				</port>
			</output>
		</layer>
		<layer id="130" name="data_add_212532125822080/EltwiseUnsqueeze22462_const" type="Const" version="opset1">
			<data offset="4296576" size="512" shape="1,128,1,1" element_type="f32"/>
			<output>
				<port id="1" precision="FP32">
					<dim>1</dim>
					<dim>128</dim>
					<dim>1</dim>
					<dim>1</dim>
				</port>
			</output>
		</layer>
		<layer id="131" name="StatefulPartitionedCall/model/batch_normalization_25/FusedBatchNormV3/variance/Fused_Add_" type="Add" version="opset1">
			<input>
				<port id="0">
					<dim>1</dim>
					<dim>128</dim>
					<dim>76</dim>
					<dim>76</dim>
				</port>
				<port id="1">
					<dim>1</dim>
					<dim>128</dim>
					<dim>1</dim>
					<dim>1</dim>
				</port>
			</input>
			<output>
				<port id="2" precision="FP32">
					<dim>1</dim>
					<dim>128</dim>
					<dim>76</dim>
					<dim>76</dim>
				</port>
			</output>
		</layer>
		<layer id="132" name="StatefulPartitionedCall/model/activation_25/mul" type="Mish" version="opset4">
			<input>
				<port id="0">
					<dim>1</dim>
					<dim>128</dim>
					<dim>76</dim>
					<dim>76</dim>
				</port>
			</input>
			<output>
				<port id="1" precision="FP32">
					<dim>1</dim>
					<dim>128</dim>
					<dim>76</dim>
					<dim>76</dim>
				</port>
			</output>
		</layer>
		<layer id="133" name="StatefulPartitionedCall/model/add_5/add" type="Add" version="opset1">
			<input>
				<port id="0">
					<dim>1</dim>
					<dim>128</dim>
					<dim>76</dim>
					<dim>76</dim>
				</port>
				<port id="1">
					<dim>1</dim>
					<dim>128</dim>
					<dim>76</dim>
					<dim>76</dim>
				</port>
			</input>
			<output>
				<port id="2" precision="FP32">
					<dim>1</dim>
					<dim>128</dim>
					<dim>76</dim>
					<dim>76</dim>
				</port>
			</output>
		</layer>
		<layer id="134" name="StatefulPartitionedCall/model/conv2d_26/Conv2D/Transpose26729_const" type="Const" version="opset1">
			<data offset="4297088" size="65536" shape="128,128,1,1" element_type="f32"/>
			<output>
				<port id="1" precision="FP32">
					<dim>128</dim>
					<dim>128</dim>
					<dim>1</dim>
					<dim>1</dim>
				</port>
			</output>
		</layer>
		<layer id="135" name="StatefulPartitionedCall/model/conv2d_26/Conv2D" type="Convolution" version="opset1">
			<data auto_pad="same_upper" strides="1,1" dilations="1,1" pads_begin="0,0" pads_end="0,0" output_padding="0,0"/>
			<input>
				<port id="0">
					<dim>1</dim>
					<dim>128</dim>
					<dim>76</dim>
					<dim>76</dim>
				</port>
				<port id="1">
					<dim>128</dim>
					<dim>128</dim>
					<dim>1</dim>
					<dim>1</dim>
				</port>
			</input>
			<output>
				<port id="2" precision="FP32">
					<dim>1</dim>
					<dim>128</dim>
					<dim>76</dim>
					<dim>76</dim>
				</port>
			</output>
		</layer>
		<layer id="136" name="data_add_212612126622082/EltwiseUnsqueeze22470_const" type="Const" version="opset1">
			<data offset="4362624" size="512" shape="1,128,1,1" element_type="f32"/>
			<output>
				<port id="1" precision="FP32">
					<dim>1</dim>
					<dim>128</dim>
					<dim>1</dim>
					<dim>1</dim>
				</port>
			</output>
		</layer>
		<layer id="137" name="StatefulPartitionedCall/model/batch_normalization_26/FusedBatchNormV3/variance/Fused_Add_" type="Add" version="opset1">
			<input>
				<port id="0">
					<dim>1</dim>
					<dim>128</dim>
					<dim>76</dim>
					<dim>76</dim>
				</port>
				<port id="1">
					<dim>1</dim>
					<dim>128</dim>
					<dim>1</dim>
					<dim>1</dim>
				</port>
			</input>
			<output>
				<port id="2" precision="FP32">
					<dim>1</dim>
					<dim>128</dim>
					<dim>76</dim>
					<dim>76</dim>
				</port>
			</output>
		</layer>
		<layer id="138" name="StatefulPartitionedCall/model/activation_26/mul" type="Mish" version="opset4">
			<input>
				<port id="0">
					<dim>1</dim>
					<dim>128</dim>
					<dim>76</dim>
					<dim>76</dim>
				</port>
			</input>
			<output>
				<port id="1" precision="FP32">
					<dim>1</dim>
					<dim>128</dim>
					<dim>76</dim>
					<dim>76</dim>
				</port>
			</output>
		</layer>
		<layer id="139" name="StatefulPartitionedCall/model/conv2d_27/Conv2D/Transpose26733_const" type="Const" version="opset1">
			<data offset="4363136" size="589824" shape="128,128,3,3" element_type="f32"/>
			<output>
				<port id="1" precision="FP32">
					<dim>128</dim>
					<dim>128</dim>
					<dim>3</dim>
					<dim>3</dim>
				</port>
			</output>
		</layer>
		<layer id="140" name="StatefulPartitionedCall/model/conv2d_27/Conv2D" type="Convolution" version="opset1">
			<data auto_pad="same_upper" strides="1,1" dilations="1,1" pads_begin="0,0" pads_end="0,0" output_padding="0,0"/>
			<input>
				<port id="0">
					<dim>1</dim>
					<dim>128</dim>
					<dim>76</dim>
					<dim>76</dim>
				</port>
				<port id="1">
					<dim>128</dim>
					<dim>128</dim>
					<dim>3</dim>
					<dim>3</dim>
				</port>
			</input>
			<output>
				<port id="2" precision="FP32">
					<dim>1</dim>
					<dim>128</dim>
					<dim>76</dim>
					<dim>76</dim>
				</port>
			</output>
		</layer>
		<layer id="141" name="data_add_212692127422084/EltwiseUnsqueeze22478_const" type="Const" version="opset1">
			<data offset="4952960" size="512" shape="1,128,1,1" element_type="f32"/>
			<output>
				<port id="1" precision="FP32">
					<dim>1</dim>
					<dim>128</dim>
					<dim>1</dim>
					<dim>1</dim>
				</port>
			</output>
		</layer>
		<layer id="142" name="StatefulPartitionedCall/model/batch_normalization_27/FusedBatchNormV3/variance/Fused_Add_" type="Add" version="opset1">
			<input>
				<port id="0">
					<dim>1</dim>
					<dim>128</dim>
					<dim>76</dim>
					<dim>76</dim>
				</port>
				<port id="1">
					<dim>1</dim>
					<dim>128</dim>
					<dim>1</dim>
					<dim>1</dim>
				</port>
			</input>
			<output>
				<port id="2" precision="FP32">
					<dim>1</dim>
					<dim>128</dim>
					<dim>76</dim>
					<dim>76</dim>
				</port>
			</output>
		</layer>
		<layer id="143" name="StatefulPartitionedCall/model/activation_27/mul" type="Mish" version="opset4">
			<input>
				<port id="0">
					<dim>1</dim>
					<dim>128</dim>
					<dim>76</dim>
					<dim>76</dim>
				</port>
			</input>
			<output>
				<port id="1" precision="FP32">
					<dim>1</dim>
					<dim>128</dim>
					<dim>76</dim>
					<dim>76</dim>
				</port>
			</output>
		</layer>
		<layer id="144" name="StatefulPartitionedCall/model/add_6/add" type="Add" version="opset1">
			<input>
				<port id="0">
					<dim>1</dim>
					<dim>128</dim>
					<dim>76</dim>
					<dim>76</dim>
				</port>
				<port id="1">
					<dim>1</dim>
					<dim>128</dim>
					<dim>76</dim>
					<dim>76</dim>
				</port>
			</input>
			<output>
				<port id="2" precision="FP32">
					<dim>1</dim>
					<dim>128</dim>
					<dim>76</dim>
					<dim>76</dim>
				</port>
			</output>
		</layer>
		<layer id="145" name="StatefulPartitionedCall/model/conv2d_28/Conv2D/Transpose26737_const" type="Const" version="opset1">
			<data offset="4953472" size="65536" shape="128,128,1,1" element_type="f32"/>
			<output>
				<port id="1" precision="FP32">
					<dim>128</dim>
					<dim>128</dim>
					<dim>1</dim>
					<dim>1</dim>
				</port>
			</output>
		</layer>
		<layer id="146" name="StatefulPartitionedCall/model/conv2d_28/Conv2D" type="Convolution" version="opset1">
			<data auto_pad="same_upper" strides="1,1" dilations="1,1" pads_begin="0,0" pads_end="0,0" output_padding="0,0"/>
			<input>
				<port id="0">
					<dim>1</dim>
					<dim>128</dim>
					<dim>76</dim>
					<dim>76</dim>
				</port>
				<port id="1">
					<dim>128</dim>
					<dim>128</dim>
					<dim>1</dim>
					<dim>1</dim>
				</port>
			</input>
			<output>
				<port id="2" precision="FP32">
					<dim>1</dim>
					<dim>128</dim>
					<dim>76</dim>
					<dim>76</dim>
				</port>
			</output>
		</layer>
		<layer id="147" name="data_add_212772128222086/EltwiseUnsqueeze22486_const" type="Const" version="opset1">
			<data offset="5019008" size="512" shape="1,128,1,1" element_type="f32"/>
			<output>
				<port id="1" precision="FP32">
					<dim>1</dim>
					<dim>128</dim>
					<dim>1</dim>
					<dim>1</dim>
				</port>
			</output>
		</layer>
		<layer id="148" name="StatefulPartitionedCall/model/batch_normalization_28/FusedBatchNormV3/variance/Fused_Add_" type="Add" version="opset1">
			<input>
				<port id="0">
					<dim>1</dim>
					<dim>128</dim>
					<dim>76</dim>
					<dim>76</dim>
				</port>
				<port id="1">
					<dim>1</dim>
					<dim>128</dim>
					<dim>1</dim>
					<dim>1</dim>
				</port>
			</input>
			<output>
				<port id="2" precision="FP32">
					<dim>1</dim>
					<dim>128</dim>
					<dim>76</dim>
					<dim>76</dim>
				</port>
			</output>
		</layer>
		<layer id="149" name="StatefulPartitionedCall/model/activation_28/mul" type="Mish" version="opset4">
			<input>
				<port id="0">
					<dim>1</dim>
					<dim>128</dim>
					<dim>76</dim>
					<dim>76</dim>
				</port>
			</input>
			<output>
				<port id="1" precision="FP32">
					<dim>1</dim>
					<dim>128</dim>
					<dim>76</dim>
					<dim>76</dim>
				</port>
			</output>
		</layer>
		<layer id="150" name="StatefulPartitionedCall/model/conv2d_29/Conv2D/Transpose26741_const" type="Const" version="opset1">
			<data offset="5019520" size="589824" shape="128,128,3,3" element_type="f32"/>
			<output>
				<port id="1" precision="FP32">
					<dim>128</dim>
					<dim>128</dim>
					<dim>3</dim>
					<dim>3</dim>
				</port>
			</output>
		</layer>
		<layer id="151" name="StatefulPartitionedCall/model/conv2d_29/Conv2D" type="Convolution" version="opset1">
			<data auto_pad="same_upper" strides="1,1" dilations="1,1" pads_begin="0,0" pads_end="0,0" output_padding="0,0"/>
			<input>
				<port id="0">
					<dim>1</dim>
					<dim>128</dim>
					<dim>76</dim>
					<dim>76</dim>
				</port>
				<port id="1">
					<dim>128</dim>
					<dim>128</dim>
					<dim>3</dim>
					<dim>3</dim>
				</port>
			</input>
			<output>
				<port id="2" precision="FP32">
					<dim>1</dim>
					<dim>128</dim>
					<dim>76</dim>
					<dim>76</dim>
				</port>
			</output>
		</layer>
		<layer id="152" name="data_add_212852129022088/EltwiseUnsqueeze22494_const" type="Const" version="opset1">
			<data offset="5609344" size="512" shape="1,128,1,1" element_type="f32"/>
			<output>
				<port id="1" precision="FP32">
					<dim>1</dim>
					<dim>128</dim>
					<dim>1</dim>
					<dim>1</dim>
				</port>
			</output>
		</layer>
		<layer id="153" name="StatefulPartitionedCall/model/batch_normalization_29/FusedBatchNormV3/variance/Fused_Add_" type="Add" version="opset1">
			<input>
				<port id="0">
					<dim>1</dim>
					<dim>128</dim>
					<dim>76</dim>
					<dim>76</dim>
				</port>
				<port id="1">
					<dim>1</dim>
					<dim>128</dim>
					<dim>1</dim>
					<dim>1</dim>
				</port>
			</input>
			<output>
				<port id="2" precision="FP32">
					<dim>1</dim>
					<dim>128</dim>
					<dim>76</dim>
					<dim>76</dim>
				</port>
			</output>
		</layer>
		<layer id="154" name="StatefulPartitionedCall/model/activation_29/mul" type="Mish" version="opset4">
			<input>
				<port id="0">
					<dim>1</dim>
					<dim>128</dim>
					<dim>76</dim>
					<dim>76</dim>
				</port>
			</input>
			<output>
				<port id="1" precision="FP32">
					<dim>1</dim>
					<dim>128</dim>
					<dim>76</dim>
					<dim>76</dim>
				</port>
			</output>
		</layer>
		<layer id="155" name="StatefulPartitionedCall/model/add_7/add" type="Add" version="opset1">
			<input>
				<port id="0">
					<dim>1</dim>
					<dim>128</dim>
					<dim>76</dim>
					<dim>76</dim>
				</port>
				<port id="1">
					<dim>1</dim>
					<dim>128</dim>
					<dim>76</dim>
					<dim>76</dim>
				</port>
			</input>
			<output>
				<port id="2" precision="FP32">
					<dim>1</dim>
					<dim>128</dim>
					<dim>76</dim>
					<dim>76</dim>
				</port>
			</output>
		</layer>
		<layer id="156" name="StatefulPartitionedCall/model/conv2d_30/Conv2D/Transpose26745_const" type="Const" version="opset1">
			<data offset="5609856" size="65536" shape="128,128,1,1" element_type="f32"/>
			<output>
				<port id="1" precision="FP32">
					<dim>128</dim>
					<dim>128</dim>
					<dim>1</dim>
					<dim>1</dim>
				</port>
			</output>
		</layer>
		<layer id="157" name="StatefulPartitionedCall/model/conv2d_30/Conv2D" type="Convolution" version="opset1">
			<data auto_pad="same_upper" strides="1,1" dilations="1,1" pads_begin="0,0" pads_end="0,0" output_padding="0,0"/>
			<input>
				<port id="0">
					<dim>1</dim>
					<dim>128</dim>
					<dim>76</dim>
					<dim>76</dim>
				</port>
				<port id="1">
					<dim>128</dim>
					<dim>128</dim>
					<dim>1</dim>
					<dim>1</dim>
				</port>
			</input>
			<output>
				<port id="2" precision="FP32">
					<dim>1</dim>
					<dim>128</dim>
					<dim>76</dim>
					<dim>76</dim>
				</port>
			</output>
		</layer>
		<layer id="158" name="data_add_212932129822090/EltwiseUnsqueeze22502_const" type="Const" version="opset1">
			<data offset="5675392" size="512" shape="1,128,1,1" element_type="f32"/>
			<output>
				<port id="1" precision="FP32">
					<dim>1</dim>
					<dim>128</dim>
					<dim>1</dim>
					<dim>1</dim>
				</port>
			</output>
		</layer>
		<layer id="159" name="StatefulPartitionedCall/model/batch_normalization_30/FusedBatchNormV3/variance/Fused_Add_" type="Add" version="opset1">
			<input>
				<port id="0">
					<dim>1</dim>
					<dim>128</dim>
					<dim>76</dim>
					<dim>76</dim>
				</port>
				<port id="1">
					<dim>1</dim>
					<dim>128</dim>
					<dim>1</dim>
					<dim>1</dim>
				</port>
			</input>
			<output>
				<port id="2" precision="FP32">
					<dim>1</dim>
					<dim>128</dim>
					<dim>76</dim>
					<dim>76</dim>
				</port>
			</output>
		</layer>
		<layer id="160" name="StatefulPartitionedCall/model/activation_30/mul" type="Mish" version="opset4">
			<input>
				<port id="0">
					<dim>1</dim>
					<dim>128</dim>
					<dim>76</dim>
					<dim>76</dim>
				</port>
			</input>
			<output>
				<port id="1" precision="FP32">
					<dim>1</dim>
					<dim>128</dim>
					<dim>76</dim>
					<dim>76</dim>
				</port>
			</output>
		</layer>
		<layer id="161" name="StatefulPartitionedCall/model/conv2d_31/Conv2D/Transpose26749_const" type="Const" version="opset1">
			<data offset="5675904" size="589824" shape="128,128,3,3" element_type="f32"/>
			<output>
				<port id="1" precision="FP32">
					<dim>128</dim>
					<dim>128</dim>
					<dim>3</dim>
					<dim>3</dim>
				</port>
			</output>
		</layer>
		<layer id="162" name="StatefulPartitionedCall/model/conv2d_31/Conv2D" type="Convolution" version="opset1">
			<data auto_pad="same_upper" strides="1,1" dilations="1,1" pads_begin="0,0" pads_end="0,0" output_padding="0,0"/>
			<input>
				<port id="0">
					<dim>1</dim>
					<dim>128</dim>
					<dim>76</dim>
					<dim>76</dim>
				</port>
				<port id="1">
					<dim>128</dim>
					<dim>128</dim>
					<dim>3</dim>
					<dim>3</dim>
				</port>
			</input>
			<output>
				<port id="2" precision="FP32">
					<dim>1</dim>
					<dim>128</dim>
					<dim>76</dim>
					<dim>76</dim>
				</port>
			</output>
		</layer>
		<layer id="163" name="data_add_213012130622092/EltwiseUnsqueeze22510_const" type="Const" version="opset1">
			<data offset="6265728" size="512" shape="1,128,1,1" element_type="f32"/>
			<output>
				<port id="1" precision="FP32">
					<dim>1</dim>
					<dim>128</dim>
					<dim>1</dim>
					<dim>1</dim>
				</port>
			</output>
		</layer>
		<layer id="164" name="StatefulPartitionedCall/model/batch_normalization_31/FusedBatchNormV3/variance/Fused_Add_" type="Add" version="opset1">
			<input>
				<port id="0">
					<dim>1</dim>
					<dim>128</dim>
					<dim>76</dim>
					<dim>76</dim>
				</port>
				<port id="1">
					<dim>1</dim>
					<dim>128</dim>
					<dim>1</dim>
					<dim>1</dim>
				</port>
			</input>
			<output>
				<port id="2" precision="FP32">
					<dim>1</dim>
					<dim>128</dim>
					<dim>76</dim>
					<dim>76</dim>
				</port>
			</output>
		</layer>
		<layer id="165" name="StatefulPartitionedCall/model/activation_31/mul" type="Mish" version="opset4">
			<input>
				<port id="0">
					<dim>1</dim>
					<dim>128</dim>
					<dim>76</dim>
					<dim>76</dim>
				</port>
			</input>
			<output>
				<port id="1" precision="FP32">
					<dim>1</dim>
					<dim>128</dim>
					<dim>76</dim>
					<dim>76</dim>
				</port>
			</output>
		</layer>
		<layer id="166" name="StatefulPartitionedCall/model/add_8/add" type="Add" version="opset1">
			<input>
				<port id="0">
					<dim>1</dim>
					<dim>128</dim>
					<dim>76</dim>
					<dim>76</dim>
				</port>
				<port id="1">
					<dim>1</dim>
					<dim>128</dim>
					<dim>76</dim>
					<dim>76</dim>
				</port>
			</input>
			<output>
				<port id="2" precision="FP32">
					<dim>1</dim>
					<dim>128</dim>
					<dim>76</dim>
					<dim>76</dim>
				</port>
			</output>
		</layer>
		<layer id="167" name="StatefulPartitionedCall/model/conv2d_32/Conv2D/Transpose26753_const" type="Const" version="opset1">
			<data offset="6266240" size="65536" shape="128,128,1,1" element_type="f32"/>
			<output>
				<port id="1" precision="FP32">
					<dim>128</dim>
					<dim>128</dim>
					<dim>1</dim>
					<dim>1</dim>
				</port>
			</output>
		</layer>
		<layer id="168" name="StatefulPartitionedCall/model/conv2d_32/Conv2D" type="Convolution" version="opset1">
			<data auto_pad="same_upper" strides="1,1" dilations="1,1" pads_begin="0,0" pads_end="0,0" output_padding="0,0"/>
			<input>
				<port id="0">
					<dim>1</dim>
					<dim>128</dim>
					<dim>76</dim>
					<dim>76</dim>
				</port>
				<port id="1">
					<dim>128</dim>
					<dim>128</dim>
					<dim>1</dim>
					<dim>1</dim>
				</port>
			</input>
			<output>
				<port id="2" precision="FP32">
					<dim>1</dim>
					<dim>128</dim>
					<dim>76</dim>
					<dim>76</dim>
				</port>
			</output>
		</layer>
		<layer id="169" name="data_add_213092131422094/EltwiseUnsqueeze22518_const" type="Const" version="opset1">
			<data offset="6331776" size="512" shape="1,128,1,1" element_type="f32"/>
			<output>
				<port id="1" precision="FP32">
					<dim>1</dim>
					<dim>128</dim>
					<dim>1</dim>
					<dim>1</dim>
				</port>
			</output>
		</layer>
		<layer id="170" name="StatefulPartitionedCall/model/batch_normalization_32/FusedBatchNormV3/variance/Fused_Add_" type="Add" version="opset1">
			<input>
				<port id="0">
					<dim>1</dim>
					<dim>128</dim>
					<dim>76</dim>
					<dim>76</dim>
				</port>
				<port id="1">
					<dim>1</dim>
					<dim>128</dim>
					<dim>1</dim>
					<dim>1</dim>
				</port>
			</input>
			<output>
				<port id="2" precision="FP32">
					<dim>1</dim>
					<dim>128</dim>
					<dim>76</dim>
					<dim>76</dim>
				</port>
			</output>
		</layer>
		<layer id="171" name="StatefulPartitionedCall/model/activation_32/mul" type="Mish" version="opset4">
			<input>
				<port id="0">
					<dim>1</dim>
					<dim>128</dim>
					<dim>76</dim>
					<dim>76</dim>
				</port>
			</input>
			<output>
				<port id="1" precision="FP32">
					<dim>1</dim>
					<dim>128</dim>
					<dim>76</dim>
					<dim>76</dim>
				</port>
			</output>
		</layer>
		<layer id="172" name="StatefulPartitionedCall/model/conv2d_33/Conv2D/Transpose26757_const" type="Const" version="opset1">
			<data offset="6332288" size="589824" shape="128,128,3,3" element_type="f32"/>
			<output>
				<port id="1" precision="FP32">
					<dim>128</dim>
					<dim>128</dim>
					<dim>3</dim>
					<dim>3</dim>
				</port>
			</output>
		</layer>
		<layer id="173" name="StatefulPartitionedCall/model/conv2d_33/Conv2D" type="Convolution" version="opset1">
			<data auto_pad="same_upper" strides="1,1" dilations="1,1" pads_begin="0,0" pads_end="0,0" output_padding="0,0"/>
			<input>
				<port id="0">
					<dim>1</dim>
					<dim>128</dim>
					<dim>76</dim>
					<dim>76</dim>
				</port>
				<port id="1">
					<dim>128</dim>
					<dim>128</dim>
					<dim>3</dim>
					<dim>3</dim>
				</port>
			</input>
			<output>
				<port id="2" precision="FP32">
					<dim>1</dim>
					<dim>128</dim>
					<dim>76</dim>
					<dim>76</dim>
				</port>
			</output>
		</layer>
		<layer id="174" name="data_add_213172132222096/EltwiseUnsqueeze22526_const" type="Const" version="opset1">
			<data offset="6922112" size="512" shape="1,128,1,1" element_type="f32"/>
			<output>
				<port id="1" precision="FP32">
					<dim>1</dim>
					<dim>128</dim>
					<dim>1</dim>
					<dim>1</dim>
				</port>
			</output>
		</layer>
		<layer id="175" name="StatefulPartitionedCall/model/batch_normalization_33/FusedBatchNormV3/variance/Fused_Add_" type="Add" version="opset1">
			<input>
				<port id="0">
					<dim>1</dim>
					<dim>128</dim>
					<dim>76</dim>
					<dim>76</dim>
				</port>
				<port id="1">
					<dim>1</dim>
					<dim>128</dim>
					<dim>1</dim>
					<dim>1</dim>
				</port>
			</input>
			<output>
				<port id="2" precision="FP32">
					<dim>1</dim>
					<dim>128</dim>
					<dim>76</dim>
					<dim>76</dim>
				</port>
			</output>
		</layer>
		<layer id="176" name="StatefulPartitionedCall/model/activation_33/mul" type="Mish" version="opset4">
			<input>
				<port id="0">
					<dim>1</dim>
					<dim>128</dim>
					<dim>76</dim>
					<dim>76</dim>
				</port>
			</input>
			<output>
				<port id="1" precision="FP32">
					<dim>1</dim>
					<dim>128</dim>
					<dim>76</dim>
					<dim>76</dim>
				</port>
			</output>
		</layer>
		<layer id="177" name="StatefulPartitionedCall/model/add_9/add" type="Add" version="opset1">
			<input>
				<port id="0">
					<dim>1</dim>
					<dim>128</dim>
					<dim>76</dim>
					<dim>76</dim>
				</port>
				<port id="1">
					<dim>1</dim>
					<dim>128</dim>
					<dim>76</dim>
					<dim>76</dim>
				</port>
			</input>
			<output>
				<port id="2" precision="FP32">
					<dim>1</dim>
					<dim>128</dim>
					<dim>76</dim>
					<dim>76</dim>
				</port>
			</output>
		</layer>
		<layer id="178" name="StatefulPartitionedCall/model/conv2d_34/Conv2D/Transpose26761_const" type="Const" version="opset1">
			<data offset="6922624" size="65536" shape="128,128,1,1" element_type="f32"/>
			<output>
				<port id="1" precision="FP32">
					<dim>128</dim>
					<dim>128</dim>
					<dim>1</dim>
					<dim>1</dim>
				</port>
			</output>
		</layer>
		<layer id="179" name="StatefulPartitionedCall/model/conv2d_34/Conv2D" type="Convolution" version="opset1">
			<data auto_pad="same_upper" strides="1,1" dilations="1,1" pads_begin="0,0" pads_end="0,0" output_padding="0,0"/>
			<input>
				<port id="0">
					<dim>1</dim>
					<dim>128</dim>
					<dim>76</dim>
					<dim>76</dim>
				</port>
				<port id="1">
					<dim>128</dim>
					<dim>128</dim>
					<dim>1</dim>
					<dim>1</dim>
				</port>
			</input>
			<output>
				<port id="2" precision="FP32">
					<dim>1</dim>
					<dim>128</dim>
					<dim>76</dim>
					<dim>76</dim>
				</port>
			</output>
		</layer>
		<layer id="180" name="data_add_213252133022098/EltwiseUnsqueeze22534_const" type="Const" version="opset1">
			<data offset="6988160" size="512" shape="1,128,1,1" element_type="f32"/>
			<output>
				<port id="1" precision="FP32">
					<dim>1</dim>
					<dim>128</dim>
					<dim>1</dim>
					<dim>1</dim>
				</port>
			</output>
		</layer>
		<layer id="181" name="StatefulPartitionedCall/model/batch_normalization_34/FusedBatchNormV3/variance/Fused_Add_" type="Add" version="opset1">
			<input>
				<port id="0">
					<dim>1</dim>
					<dim>128</dim>
					<dim>76</dim>
					<dim>76</dim>
				</port>
				<port id="1">
					<dim>1</dim>
					<dim>128</dim>
					<dim>1</dim>
					<dim>1</dim>
				</port>
			</input>
			<output>
				<port id="2" precision="FP32">
					<dim>1</dim>
					<dim>128</dim>
					<dim>76</dim>
					<dim>76</dim>
				</port>
			</output>
		</layer>
		<layer id="182" name="StatefulPartitionedCall/model/activation_34/mul" type="Mish" version="opset4">
			<input>
				<port id="0">
					<dim>1</dim>
					<dim>128</dim>
					<dim>76</dim>
					<dim>76</dim>
				</port>
			</input>
			<output>
				<port id="1" precision="FP32">
					<dim>1</dim>
					<dim>128</dim>
					<dim>76</dim>
					<dim>76</dim>
				</port>
			</output>
		</layer>
		<layer id="183" name="StatefulPartitionedCall/model/conv2d_35/Conv2D/Transpose26765_const" type="Const" version="opset1">
			<data offset="6988672" size="589824" shape="128,128,3,3" element_type="f32"/>
			<output>
				<port id="1" precision="FP32">
					<dim>128</dim>
					<dim>128</dim>
					<dim>3</dim>
					<dim>3</dim>
				</port>
			</output>
		</layer>
		<layer id="184" name="StatefulPartitionedCall/model/conv2d_35/Conv2D" type="Convolution" version="opset1">
			<data auto_pad="same_upper" strides="1,1" dilations="1,1" pads_begin="0,0" pads_end="0,0" output_padding="0,0"/>
			<input>
				<port id="0">
					<dim>1</dim>
					<dim>128</dim>
					<dim>76</dim>
					<dim>76</dim>
				</port>
				<port id="1">
					<dim>128</dim>
					<dim>128</dim>
					<dim>3</dim>
					<dim>3</dim>
				</port>
			</input>
			<output>
				<port id="2" precision="FP32">
					<dim>1</dim>
					<dim>128</dim>
					<dim>76</dim>
					<dim>76</dim>
				</port>
			</output>
		</layer>
		<layer id="185" name="data_add_213332133822100/EltwiseUnsqueeze22542_const" type="Const" version="opset1">
			<data offset="7578496" size="512" shape="1,128,1,1" element_type="f32"/>
			<output>
				<port id="1" precision="FP32">
					<dim>1</dim>
					<dim>128</dim>
					<dim>1</dim>
					<dim>1</dim>
				</port>
			</output>
		</layer>
		<layer id="186" name="StatefulPartitionedCall/model/batch_normalization_35/FusedBatchNormV3/variance/Fused_Add_" type="Add" version="opset1">
			<input>
				<port id="0">
					<dim>1</dim>
					<dim>128</dim>
					<dim>76</dim>
					<dim>76</dim>
				</port>
				<port id="1">
					<dim>1</dim>
					<dim>128</dim>
					<dim>1</dim>
					<dim>1</dim>
				</port>
			</input>
			<output>
				<port id="2" precision="FP32">
					<dim>1</dim>
					<dim>128</dim>
					<dim>76</dim>
					<dim>76</dim>
				</port>
			</output>
		</layer>
		<layer id="187" name="StatefulPartitionedCall/model/activation_35/mul" type="Mish" version="opset4">
			<input>
				<port id="0">
					<dim>1</dim>
					<dim>128</dim>
					<dim>76</dim>
					<dim>76</dim>
				</port>
			</input>
			<output>
				<port id="1" precision="FP32">
					<dim>1</dim>
					<dim>128</dim>
					<dim>76</dim>
					<dim>76</dim>
				</port>
			</output>
		</layer>
		<layer id="188" name="StatefulPartitionedCall/model/add_10/add" type="Add" version="opset1">
			<input>
				<port id="0">
					<dim>1</dim>
					<dim>128</dim>
					<dim>76</dim>
					<dim>76</dim>
				</port>
				<port id="1">
					<dim>1</dim>
					<dim>128</dim>
					<dim>76</dim>
					<dim>76</dim>
				</port>
			</input>
			<output>
				<port id="2" precision="FP32">
					<dim>1</dim>
					<dim>128</dim>
					<dim>76</dim>
					<dim>76</dim>
				</port>
			</output>
		</layer>
		<layer id="189" name="StatefulPartitionedCall/model/conv2d_36/Conv2D/Transpose26769_const" type="Const" version="opset1">
			<data offset="7579008" size="65536" shape="128,128,1,1" element_type="f32"/>
			<output>
				<port id="1" precision="FP32">
					<dim>128</dim>
					<dim>128</dim>
					<dim>1</dim>
					<dim>1</dim>
				</port>
			</output>
		</layer>
		<layer id="190" name="StatefulPartitionedCall/model/conv2d_36/Conv2D" type="Convolution" version="opset1">
			<data auto_pad="same_upper" strides="1,1" dilations="1,1" pads_begin="0,0" pads_end="0,0" output_padding="0,0"/>
			<input>
				<port id="0">
					<dim>1</dim>
					<dim>128</dim>
					<dim>76</dim>
					<dim>76</dim>
				</port>
				<port id="1">
					<dim>128</dim>
					<dim>128</dim>
					<dim>1</dim>
					<dim>1</dim>
				</port>
			</input>
			<output>
				<port id="2" precision="FP32">
					<dim>1</dim>
					<dim>128</dim>
					<dim>76</dim>
					<dim>76</dim>
				</port>
			</output>
		</layer>
		<layer id="191" name="data_add_213412134622102/EltwiseUnsqueeze22550_const" type="Const" version="opset1">
			<data offset="7644544" size="512" shape="1,128,1,1" element_type="f32"/>
			<output>
				<port id="1" precision="FP32">
					<dim>1</dim>
					<dim>128</dim>
					<dim>1</dim>
					<dim>1</dim>
				</port>
			</output>
		</layer>
		<layer id="192" name="StatefulPartitionedCall/model/batch_normalization_36/FusedBatchNormV3/variance/Fused_Add_" type="Add" version="opset1">
			<input>
				<port id="0">
					<dim>1</dim>
					<dim>128</dim>
					<dim>76</dim>
					<dim>76</dim>
				</port>
				<port id="1">
					<dim>1</dim>
					<dim>128</dim>
					<dim>1</dim>
					<dim>1</dim>
				</port>
			</input>
			<output>
				<port id="2" precision="FP32">
					<dim>1</dim>
					<dim>128</dim>
					<dim>76</dim>
					<dim>76</dim>
				</port>
			</output>
		</layer>
		<layer id="193" name="StatefulPartitionedCall/model/activation_36/mul" type="Mish" version="opset4">
			<input>
				<port id="0">
					<dim>1</dim>
					<dim>128</dim>
					<dim>76</dim>
					<dim>76</dim>
				</port>
			</input>
			<output>
				<port id="1" precision="FP32">
					<dim>1</dim>
					<dim>128</dim>
					<dim>76</dim>
					<dim>76</dim>
				</port>
			</output>
		</layer>
		<layer id="194" name="StatefulPartitionedCall/model/conv2d_18/Conv2D/Transpose26773_const" type="Const" version="opset1">
			<data offset="7645056" size="131072" shape="128,256,1,1" element_type="f32"/>
			<output>
				<port id="1" precision="FP32">
					<dim>128</dim>
					<dim>256</dim>
					<dim>1</dim>
					<dim>1</dim>
				</port>
			</output>
		</layer>
		<layer id="195" name="StatefulPartitionedCall/model/conv2d_18/Conv2D" type="Convolution" version="opset1">
			<data auto_pad="same_upper" strides="1,1" dilations="1,1" pads_begin="0,0" pads_end="0,0" output_padding="0,0"/>
			<input>
				<port id="0">
					<dim>1</dim>
					<dim>256</dim>
					<dim>76</dim>
					<dim>76</dim>
				</port>
				<port id="1">
					<dim>128</dim>
					<dim>256</dim>
					<dim>1</dim>
					<dim>1</dim>
				</port>
			</input>
			<output>
				<port id="2" precision="FP32">
					<dim>1</dim>
					<dim>128</dim>
					<dim>76</dim>
					<dim>76</dim>
				</port>
			</output>
		</layer>
		<layer id="196" name="data_add_211972120222066/EltwiseUnsqueeze22406_const" type="Const" version="opset1">
			<data offset="7776128" size="512" shape="1,128,1,1" element_type="f32"/>
			<output>
				<port id="1" precision="FP32">
					<dim>1</dim>
					<dim>128</dim>
					<dim>1</dim>
					<dim>1</dim>
				</port>
			</output>
		</layer>
		<layer id="197" name="StatefulPartitionedCall/model/batch_normalization_18/FusedBatchNormV3/variance/Fused_Add_" type="Add" version="opset1">
			<input>
				<port id="0">
					<dim>1</dim>
					<dim>128</dim>
					<dim>76</dim>
					<dim>76</dim>
				</port>
				<port id="1">
					<dim>1</dim>
					<dim>128</dim>
					<dim>1</dim>
					<dim>1</dim>
				</port>
			</input>
			<output>
				<port id="2" precision="FP32">
					<dim>1</dim>
					<dim>128</dim>
					<dim>76</dim>
					<dim>76</dim>
				</port>
			</output>
		</layer>
		<layer id="198" name="StatefulPartitionedCall/model/activation_18/mul" type="Mish" version="opset4">
			<input>
				<port id="0">
					<dim>1</dim>
					<dim>128</dim>
					<dim>76</dim>
					<dim>76</dim>
				</port>
			</input>
			<output>
				<port id="1" precision="FP32">
					<dim>1</dim>
					<dim>128</dim>
					<dim>76</dim>
					<dim>76</dim>
				</port>
			</output>
		</layer>
		<layer id="199" name="StatefulPartitionedCall/model/concatenate_2/concat" type="Concat" version="opset1">
			<data axis="1"/>
			<input>
				<port id="0">
					<dim>1</dim>
					<dim>128</dim>
					<dim>76</dim>
					<dim>76</dim>
				</port>
				<port id="1">
					<dim>1</dim>
					<dim>128</dim>
					<dim>76</dim>
					<dim>76</dim>
				</port>
			</input>
			<output>
				<port id="2" precision="FP32">
					<dim>1</dim>
					<dim>256</dim>
					<dim>76</dim>
					<dim>76</dim>
				</port>
			</output>
		</layer>
		<layer id="200" name="StatefulPartitionedCall/model/conv2d_37/Conv2D/Transpose26777_const" type="Const" version="opset1">
			<data offset="7776640" size="262144" shape="256,256,1,1" element_type="f32"/>
			<output>
				<port id="1" precision="FP32">
					<dim>256</dim>
					<dim>256</dim>
					<dim>1</dim>
					<dim>1</dim>
				</port>
			</output>
		</layer>
		<layer id="201" name="StatefulPartitionedCall/model/conv2d_37/Conv2D" type="Convolution" version="opset1">
			<data auto_pad="same_upper" strides="1,1" dilations="1,1" pads_begin="0,0" pads_end="0,0" output_padding="0,0"/>
			<input>
				<port id="0">
					<dim>1</dim>
					<dim>256</dim>
					<dim>76</dim>
					<dim>76</dim>
				</port>
				<port id="1">
					<dim>256</dim>
					<dim>256</dim>
					<dim>1</dim>
					<dim>1</dim>
				</port>
			</input>
			<output>
				<port id="2" precision="FP32">
					<dim>1</dim>
					<dim>256</dim>
					<dim>76</dim>
					<dim>76</dim>
				</port>
			</output>
		</layer>
		<layer id="202" name="data_add_213492135422104/EltwiseUnsqueeze22558_const" type="Const" version="opset1">
			<data offset="8038784" size="1024" shape="1,256,1,1" element_type="f32"/>
			<output>
				<port id="1" precision="FP32">
					<dim>1</dim>
					<dim>256</dim>
					<dim>1</dim>
					<dim>1</dim>
				</port>
			</output>
		</layer>
		<layer id="203" name="StatefulPartitionedCall/model/batch_normalization_37/FusedBatchNormV3/variance/Fused_Add_" type="Add" version="opset1">
			<input>
				<port id="0">
					<dim>1</dim>
					<dim>256</dim>
					<dim>76</dim>
					<dim>76</dim>
				</port>
				<port id="1">
					<dim>1</dim>
					<dim>256</dim>
					<dim>1</dim>
					<dim>1</dim>
				</port>
			</input>
			<output>
				<port id="2" precision="FP32">
					<dim>1</dim>
					<dim>256</dim>
					<dim>76</dim>
					<dim>76</dim>
				</port>
			</output>
		</layer>
		<layer id="204" name="StatefulPartitionedCall/model/activation_37/mul" type="Mish" version="opset4">
			<input>
				<port id="0">
					<dim>1</dim>
					<dim>256</dim>
					<dim>76</dim>
					<dim>76</dim>
				</port>
			</input>
			<output>
				<port id="1" precision="FP32">
					<dim>1</dim>
					<dim>256</dim>
					<dim>76</dim>
					<dim>76</dim>
				</port>
			</output>
		</layer>
		<layer id="205" name="StatefulPartitionedCall/model/conv2d_86/Conv2D/Transpose26781_const" type="Const" version="opset1">
			<data offset="8039808" size="131072" shape="128,256,1,1" element_type="f32"/>
			<output>
				<port id="1" precision="FP32">
					<dim>128</dim>
					<dim>256</dim>
					<dim>1</dim>
					<dim>1</dim>
				</port>
			</output>
		</layer>
		<layer id="206" name="StatefulPartitionedCall/model/conv2d_86/Conv2D" type="Convolution" version="opset1">
			<data auto_pad="same_upper" strides="1,1" dilations="1,1" pads_begin="0,0" pads_end="0,0" output_padding="0,0"/>
			<input>
				<port id="0">
					<dim>1</dim>
					<dim>256</dim>
					<dim>76</dim>
					<dim>76</dim>
				</port>
				<port id="1">
					<dim>128</dim>
					<dim>256</dim>
					<dim>1</dim>
					<dim>1</dim>
				</port>
			</input>
			<output>
				<port id="2" precision="FP32">
					<dim>1</dim>
					<dim>128</dim>
					<dim>76</dim>
					<dim>76</dim>
				</port>
			</output>
		</layer>
		<layer id="207" name="data_add_217412174622202/EltwiseUnsqueeze22950_const" type="Const" version="opset1">
			<data offset="8170880" size="512" shape="1,128,1,1" element_type="f32"/>
			<output>
				<port id="1" precision="FP32">
					<dim>1</dim>
					<dim>128</dim>
					<dim>1</dim>
					<dim>1</dim>
				</port>
			</output>
		</layer>
		<layer id="208" name="StatefulPartitionedCall/model/batch_normalization_86/FusedBatchNormV3/variance/Fused_Add_" type="Add" version="opset1">
			<input>
				<port id="0">
					<dim>1</dim>
					<dim>128</dim>
					<dim>76</dim>
					<dim>76</dim>
				</port>
				<port id="1">
					<dim>1</dim>
					<dim>128</dim>
					<dim>1</dim>
					<dim>1</dim>
				</port>
			</input>
			<output>
				<port id="2" precision="FP32">
					<dim>1</dim>
					<dim>128</dim>
					<dim>76</dim>
					<dim>76</dim>
				</port>
			</output>
		</layer>
		<layer id="209" name="StatefulPartitionedCall/model/leaky_re_lu_14/LeakyRelu/Cast_134700_const" type="Const" version="opset1">
			<data offset="8171392" size="4" shape="1" element_type="f32"/>
			<output>
				<port id="1" precision="FP32">
					<dim>1</dim>
				</port>
			</output>
		</layer>
		<layer id="210" name="StatefulPartitionedCall/model/leaky_re_lu_14/LeakyRelu" type="PReLU" version="opset1">
			<input>
				<port id="0">
					<dim>1</dim>
					<dim>128</dim>
					<dim>76</dim>
					<dim>76</dim>
				</port>
				<port id="1">
					<dim>1</dim>
				</port>
			</input>
			<output>
				<port id="2" precision="FP32">
					<dim>1</dim>
					<dim>128</dim>
					<dim>76</dim>
					<dim>76</dim>
				</port>
			</output>
		</layer>
		<layer id="211" name="StatefulPartitionedCall/model/conv2d_38/Conv2D/Transpose26785_const" type="Const" version="opset1">
			<data offset="8171396" size="4718592" shape="512,256,3,3" element_type="f32"/>
			<output>
				<port id="1" precision="FP32">
					<dim>512</dim>
					<dim>256</dim>
					<dim>3</dim>
					<dim>3</dim>
				</port>
			</output>
		</layer>
		<layer id="212" name="StatefulPartitionedCall/model/conv2d_38/Conv2D" type="Convolution" version="opset1">
			<data strides="2,2" dilations="1,1" pads_begin="1,1" pads_end="0,0" output_padding="0,0"/>
			<input>
				<port id="0">
					<dim>1</dim>
					<dim>256</dim>
					<dim>76</dim>
					<dim>76</dim>
				</port>
				<port id="1">
					<dim>512</dim>
					<dim>256</dim>
					<dim>3</dim>
					<dim>3</dim>
				</port>
			</input>
			<output>
				<port id="2" precision="FP32">
					<dim>1</dim>
					<dim>512</dim>
					<dim>38</dim>
					<dim>38</dim>
				</port>
			</output>
		</layer>
		<layer id="213" name="data_add_213572136222106/EltwiseUnsqueeze22566_const" type="Const" version="opset1">
			<data offset="12889988" size="2048" shape="1,512,1,1" element_type="f32"/>
			<output>
				<port id="1" precision="FP32">
					<dim>1</dim>
					<dim>512</dim>
					<dim>1</dim>
					<dim>1</dim>
				</port>
			</output>
		</layer>
		<layer id="214" name="StatefulPartitionedCall/model/batch_normalization_38/FusedBatchNormV3/variance/Fused_Add_" type="Add" version="opset1">
			<input>
				<port id="0">
					<dim>1</dim>
					<dim>512</dim>
					<dim>38</dim>
					<dim>38</dim>
				</port>
				<port id="1">
					<dim>1</dim>
					<dim>512</dim>
					<dim>1</dim>
					<dim>1</dim>
				</port>
			</input>
			<output>
				<port id="2" precision="FP32">
					<dim>1</dim>
					<dim>512</dim>
					<dim>38</dim>
					<dim>38</dim>
				</port>
			</output>
		</layer>
		<layer id="215" name="StatefulPartitionedCall/model/activation_38/mul" type="Mish" version="opset4">
			<input>
				<port id="0">
					<dim>1</dim>
					<dim>512</dim>
					<dim>38</dim>
					<dim>38</dim>
				</port>
			</input>
			<output>
				<port id="1" precision="FP32">
					<dim>1</dim>
					<dim>512</dim>
					<dim>38</dim>
					<dim>38</dim>
				</port>
			</output>
		</layer>
		<layer id="216" name="StatefulPartitionedCall/model/conv2d_40/Conv2D/Transpose26789_const" type="Const" version="opset1">
			<data offset="12892036" size="524288" shape="256,512,1,1" element_type="f32"/>
			<output>
				<port id="1" precision="FP32">
					<dim>256</dim>
					<dim>512</dim>
					<dim>1</dim>
					<dim>1</dim>
				</port>
			</output>
		</layer>
		<layer id="217" name="StatefulPartitionedCall/model/conv2d_40/Conv2D" type="Convolution" version="opset1">
			<data auto_pad="same_upper" strides="1,1" dilations="1,1" pads_begin="0,0" pads_end="0,0" output_padding="0,0"/>
			<input>
				<port id="0">
					<dim>1</dim>
					<dim>512</dim>
					<dim>38</dim>
					<dim>38</dim>
				</port>
				<port id="1">
					<dim>256</dim>
					<dim>512</dim>
					<dim>1</dim>
					<dim>1</dim>
				</port>
			</input>
			<output>
				<port id="2" precision="FP32">
					<dim>1</dim>
					<dim>256</dim>
					<dim>38</dim>
					<dim>38</dim>
				</port>
			</output>
		</layer>
		<layer id="218" name="data_add_213732137822110/EltwiseUnsqueeze22582_const" type="Const" version="opset1">
			<data offset="13416324" size="1024" shape="1,256,1,1" element_type="f32"/>
			<output>
				<port id="1" precision="FP32">
					<dim>1</dim>
					<dim>256</dim>
					<dim>1</dim>
					<dim>1</dim>
				</port>
			</output>
		</layer>
		<layer id="219" name="StatefulPartitionedCall/model/batch_normalization_40/FusedBatchNormV3/variance/Fused_Add_" type="Add" version="opset1">
			<input>
				<port id="0">
					<dim>1</dim>
					<dim>256</dim>
					<dim>38</dim>
					<dim>38</dim>
				</port>
				<port id="1">
					<dim>1</dim>
					<dim>256</dim>
					<dim>1</dim>
					<dim>1</dim>
				</port>
			</input>
			<output>
				<port id="2" precision="FP32">
					<dim>1</dim>
					<dim>256</dim>
					<dim>38</dim>
					<dim>38</dim>
				</port>
			</output>
		</layer>
		<layer id="220" name="StatefulPartitionedCall/model/activation_40/mul" type="Mish" version="opset4">
			<input>
				<port id="0">
					<dim>1</dim>
					<dim>256</dim>
					<dim>38</dim>
					<dim>38</dim>
				</port>
			</input>
			<output>
				<port id="1" precision="FP32">
					<dim>1</dim>
					<dim>256</dim>
					<dim>38</dim>
					<dim>38</dim>
				</port>
			</output>
		</layer>
		<layer id="221" name="StatefulPartitionedCall/model/conv2d_41/Conv2D/Transpose26793_const" type="Const" version="opset1">
			<data offset="13417348" size="262144" shape="256,256,1,1" element_type="f32"/>
			<output>
				<port id="1" precision="FP32">
					<dim>256</dim>
					<dim>256</dim>
					<dim>1</dim>
					<dim>1</dim>
				</port>
			</output>
		</layer>
		<layer id="222" name="StatefulPartitionedCall/model/conv2d_41/Conv2D" type="Convolution" version="opset1">
			<data auto_pad="same_upper" strides="1,1" dilations="1,1" pads_begin="0,0" pads_end="0,0" output_padding="0,0"/>
			<input>
				<port id="0">
					<dim>1</dim>
					<dim>256</dim>
					<dim>38</dim>
					<dim>38</dim>
				</port>
				<port id="1">
					<dim>256</dim>
					<dim>256</dim>
					<dim>1</dim>
					<dim>1</dim>
				</port>
			</input>
			<output>
				<port id="2" precision="FP32">
					<dim>1</dim>
					<dim>256</dim>
					<dim>38</dim>
					<dim>38</dim>
				</port>
			</output>
		</layer>
		<layer id="223" name="data_add_213812138622112/EltwiseUnsqueeze22590_const" type="Const" version="opset1">
			<data offset="13679492" size="1024" shape="1,256,1,1" element_type="f32"/>
			<output>
				<port id="1" precision="FP32">
					<dim>1</dim>
					<dim>256</dim>
					<dim>1</dim>
					<dim>1</dim>
				</port>
			</output>
		</layer>
		<layer id="224" name="StatefulPartitionedCall/model/batch_normalization_41/FusedBatchNormV3/variance/Fused_Add_" type="Add" version="opset1">
			<input>
				<port id="0">
					<dim>1</dim>
					<dim>256</dim>
					<dim>38</dim>
					<dim>38</dim>
				</port>
				<port id="1">
					<dim>1</dim>
					<dim>256</dim>
					<dim>1</dim>
					<dim>1</dim>
				</port>
			</input>
			<output>
				<port id="2" precision="FP32">
					<dim>1</dim>
					<dim>256</dim>
					<dim>38</dim>
					<dim>38</dim>
				</port>
			</output>
		</layer>
		<layer id="225" name="StatefulPartitionedCall/model/activation_41/mul" type="Mish" version="opset4">
			<input>
				<port id="0">
					<dim>1</dim>
					<dim>256</dim>
					<dim>38</dim>
					<dim>38</dim>
				</port>
			</input>
			<output>
				<port id="1" precision="FP32">
					<dim>1</dim>
					<dim>256</dim>
					<dim>38</dim>
					<dim>38</dim>
				</port>
			</output>
		</layer>
		<layer id="226" name="StatefulPartitionedCall/model/conv2d_42/Conv2D/Transpose26797_const" type="Const" version="opset1">
			<data offset="13680516" size="2359296" shape="256,256,3,3" element_type="f32"/>
			<output>
				<port id="1" precision="FP32">
					<dim>256</dim>
					<dim>256</dim>
					<dim>3</dim>
					<dim>3</dim>
				</port>
			</output>
		</layer>
		<layer id="227" name="StatefulPartitionedCall/model/conv2d_42/Conv2D" type="Convolution" version="opset1">
			<data auto_pad="same_upper" strides="1,1" dilations="1,1" pads_begin="0,0" pads_end="0,0" output_padding="0,0"/>
			<input>
				<port id="0">
					<dim>1</dim>
					<dim>256</dim>
					<dim>38</dim>
					<dim>38</dim>
				</port>
				<port id="1">
					<dim>256</dim>
					<dim>256</dim>
					<dim>3</dim>
					<dim>3</dim>
				</port>
			</input>
			<output>
				<port id="2" precision="FP32">
					<dim>1</dim>
					<dim>256</dim>
					<dim>38</dim>
					<dim>38</dim>
				</port>
			</output>
		</layer>
		<layer id="228" name="data_add_213892139422114/EltwiseUnsqueeze22598_const" type="Const" version="opset1">
			<data offset="16039812" size="1024" shape="1,256,1,1" element_type="f32"/>
			<output>
				<port id="1" precision="FP32">
					<dim>1</dim>
					<dim>256</dim>
					<dim>1</dim>
					<dim>1</dim>
				</port>
			</output>
		</layer>
		<layer id="229" name="StatefulPartitionedCall/model/batch_normalization_42/FusedBatchNormV3/variance/Fused_Add_" type="Add" version="opset1">
			<input>
				<port id="0">
					<dim>1</dim>
					<dim>256</dim>
					<dim>38</dim>
					<dim>38</dim>
				</port>
				<port id="1">
					<dim>1</dim>
					<dim>256</dim>
					<dim>1</dim>
					<dim>1</dim>
				</port>
			</input>
			<output>
				<port id="2" precision="FP32">
					<dim>1</dim>
					<dim>256</dim>
					<dim>38</dim>
					<dim>38</dim>
				</port>
			</output>
		</layer>
		<layer id="230" name="StatefulPartitionedCall/model/activation_42/mul" type="Mish" version="opset4">
			<input>
				<port id="0">
					<dim>1</dim>
					<dim>256</dim>
					<dim>38</dim>
					<dim>38</dim>
				</port>
			</input>
			<output>
				<port id="1" precision="FP32">
					<dim>1</dim>
					<dim>256</dim>
					<dim>38</dim>
					<dim>38</dim>
				</port>
			</output>
		</layer>
		<layer id="231" name="StatefulPartitionedCall/model/add_11/add" type="Add" version="opset1">
			<input>
				<port id="0">
					<dim>1</dim>
					<dim>256</dim>
					<dim>38</dim>
					<dim>38</dim>
				</port>
				<port id="1">
					<dim>1</dim>
					<dim>256</dim>
					<dim>38</dim>
					<dim>38</dim>
				</port>
			</input>
			<output>
				<port id="2" precision="FP32">
					<dim>1</dim>
					<dim>256</dim>
					<dim>38</dim>
					<dim>38</dim>
				</port>
			</output>
		</layer>
		<layer id="232" name="StatefulPartitionedCall/model/conv2d_43/Conv2D/Transpose26801_const" type="Const" version="opset1">
			<data offset="16040836" size="262144" shape="256,256,1,1" element_type="f32"/>
			<output>
				<port id="1" precision="FP32">
					<dim>256</dim>
					<dim>256</dim>
					<dim>1</dim>
					<dim>1</dim>
				</port>
			</output>
		</layer>
		<layer id="233" name="StatefulPartitionedCall/model/conv2d_43/Conv2D" type="Convolution" version="opset1">
			<data auto_pad="same_upper" strides="1,1" dilations="1,1" pads_begin="0,0" pads_end="0,0" output_padding="0,0"/>
			<input>
				<port id="0">
					<dim>1</dim>
					<dim>256</dim>
					<dim>38</dim>
					<dim>38</dim>
				</port>
				<port id="1">
					<dim>256</dim>
					<dim>256</dim>
					<dim>1</dim>
					<dim>1</dim>
				</port>
			</input>
			<output>
				<port id="2" precision="FP32">
					<dim>1</dim>
					<dim>256</dim>
					<dim>38</dim>
					<dim>38</dim>
				</port>
			</output>
		</layer>
		<layer id="234" name="data_add_213972140222116/EltwiseUnsqueeze22606_const" type="Const" version="opset1">
			<data offset="16302980" size="1024" shape="1,256,1,1" element_type="f32"/>
			<output>
				<port id="1" precision="FP32">
					<dim>1</dim>
					<dim>256</dim>
					<dim>1</dim>
					<dim>1</dim>
				</port>
			</output>
		</layer>
		<layer id="235" name="StatefulPartitionedCall/model/batch_normalization_43/FusedBatchNormV3/variance/Fused_Add_" type="Add" version="opset1">
			<input>
				<port id="0">
					<dim>1</dim>
					<dim>256</dim>
					<dim>38</dim>
					<dim>38</dim>
				</port>
				<port id="1">
					<dim>1</dim>
					<dim>256</dim>
					<dim>1</dim>
					<dim>1</dim>
				</port>
			</input>
			<output>
				<port id="2" precision="FP32">
					<dim>1</dim>
					<dim>256</dim>
					<dim>38</dim>
					<dim>38</dim>
				</port>
			</output>
		</layer>
		<layer id="236" name="StatefulPartitionedCall/model/activation_43/mul" type="Mish" version="opset4">
			<input>
				<port id="0">
					<dim>1</dim>
					<dim>256</dim>
					<dim>38</dim>
					<dim>38</dim>
				</port>
			</input>
			<output>
				<port id="1" precision="FP32">
					<dim>1</dim>
					<dim>256</dim>
					<dim>38</dim>
					<dim>38</dim>
				</port>
			</output>
		</layer>
		<layer id="237" name="StatefulPartitionedCall/model/conv2d_44/Conv2D/Transpose26805_const" type="Const" version="opset1">
			<data offset="16304004" size="2359296" shape="256,256,3,3" element_type="f32"/>
			<output>
				<port id="1" precision="FP32">
					<dim>256</dim>
					<dim>256</dim>
					<dim>3</dim>
					<dim>3</dim>
				</port>
			</output>
		</layer>
		<layer id="238" name="StatefulPartitionedCall/model/conv2d_44/Conv2D" type="Convolution" version="opset1">
			<data auto_pad="same_upper" strides="1,1" dilations="1,1" pads_begin="0,0" pads_end="0,0" output_padding="0,0"/>
			<input>
				<port id="0">
					<dim>1</dim>
					<dim>256</dim>
					<dim>38</dim>
					<dim>38</dim>
				</port>
				<port id="1">
					<dim>256</dim>
					<dim>256</dim>
					<dim>3</dim>
					<dim>3</dim>
				</port>
			</input>
			<output>
				<port id="2" precision="FP32">
					<dim>1</dim>
					<dim>256</dim>
					<dim>38</dim>
					<dim>38</dim>
				</port>
			</output>
		</layer>
		<layer id="239" name="data_add_214052141022118/EltwiseUnsqueeze22614_const" type="Const" version="opset1">
			<data offset="18663300" size="1024" shape="1,256,1,1" element_type="f32"/>
			<output>
				<port id="1" precision="FP32">
					<dim>1</dim>
					<dim>256</dim>
					<dim>1</dim>
					<dim>1</dim>
				</port>
			</output>
		</layer>
		<layer id="240" name="StatefulPartitionedCall/model/batch_normalization_44/FusedBatchNormV3/variance/Fused_Add_" type="Add" version="opset1">
			<input>
				<port id="0">
					<dim>1</dim>
					<dim>256</dim>
					<dim>38</dim>
					<dim>38</dim>
				</port>
				<port id="1">
					<dim>1</dim>
					<dim>256</dim>
					<dim>1</dim>
					<dim>1</dim>
				</port>
			</input>
			<output>
				<port id="2" precision="FP32">
					<dim>1</dim>
					<dim>256</dim>
					<dim>38</dim>
					<dim>38</dim>
				</port>
			</output>
		</layer>
		<layer id="241" name="StatefulPartitionedCall/model/activation_44/mul" type="Mish" version="opset4">
			<input>
				<port id="0">
					<dim>1</dim>
					<dim>256</dim>
					<dim>38</dim>
					<dim>38</dim>
				</port>
			</input>
			<output>
				<port id="1" precision="FP32">
					<dim>1</dim>
					<dim>256</dim>
					<dim>38</dim>
					<dim>38</dim>
				</port>
			</output>
		</layer>
		<layer id="242" name="StatefulPartitionedCall/model/add_12/add" type="Add" version="opset1">
			<input>
				<port id="0">
					<dim>1</dim>
					<dim>256</dim>
					<dim>38</dim>
					<dim>38</dim>
				</port>
				<port id="1">
					<dim>1</dim>
					<dim>256</dim>
					<dim>38</dim>
					<dim>38</dim>
				</port>
			</input>
			<output>
				<port id="2" precision="FP32">
					<dim>1</dim>
					<dim>256</dim>
					<dim>38</dim>
					<dim>38</dim>
				</port>
			</output>
		</layer>
		<layer id="243" name="StatefulPartitionedCall/model/conv2d_45/Conv2D/Transpose26809_const" type="Const" version="opset1">
			<data offset="18664324" size="262144" shape="256,256,1,1" element_type="f32"/>
			<output>
				<port id="1" precision="FP32">
					<dim>256</dim>
					<dim>256</dim>
					<dim>1</dim>
					<dim>1</dim>
				</port>
			</output>
		</layer>
		<layer id="244" name="StatefulPartitionedCall/model/conv2d_45/Conv2D" type="Convolution" version="opset1">
			<data auto_pad="same_upper" strides="1,1" dilations="1,1" pads_begin="0,0" pads_end="0,0" output_padding="0,0"/>
			<input>
				<port id="0">
					<dim>1</dim>
					<dim>256</dim>
					<dim>38</dim>
					<dim>38</dim>
				</port>
				<port id="1">
					<dim>256</dim>
					<dim>256</dim>
					<dim>1</dim>
					<dim>1</dim>
				</port>
			</input>
			<output>
				<port id="2" precision="FP32">
					<dim>1</dim>
					<dim>256</dim>
					<dim>38</dim>
					<dim>38</dim>
				</port>
			</output>
		</layer>
		<layer id="245" name="data_add_214132141822120/EltwiseUnsqueeze22622_const" type="Const" version="opset1">
			<data offset="18926468" size="1024" shape="1,256,1,1" element_type="f32"/>
			<output>
				<port id="1" precision="FP32">
					<dim>1</dim>
					<dim>256</dim>
					<dim>1</dim>
					<dim>1</dim>
				</port>
			</output>
		</layer>
		<layer id="246" name="StatefulPartitionedCall/model/batch_normalization_45/FusedBatchNormV3/variance/Fused_Add_" type="Add" version="opset1">
			<input>
				<port id="0">
					<dim>1</dim>
					<dim>256</dim>
					<dim>38</dim>
					<dim>38</dim>
				</port>
				<port id="1">
					<dim>1</dim>
					<dim>256</dim>
					<dim>1</dim>
					<dim>1</dim>
				</port>
			</input>
			<output>
				<port id="2" precision="FP32">
					<dim>1</dim>
					<dim>256</dim>
					<dim>38</dim>
					<dim>38</dim>
				</port>
			</output>
		</layer>
		<layer id="247" name="StatefulPartitionedCall/model/activation_45/mul" type="Mish" version="opset4">
			<input>
				<port id="0">
					<dim>1</dim>
					<dim>256</dim>
					<dim>38</dim>
					<dim>38</dim>
				</port>
			</input>
			<output>
				<port id="1" precision="FP32">
					<dim>1</dim>
					<dim>256</dim>
					<dim>38</dim>
					<dim>38</dim>
				</port>
			</output>
		</layer>
		<layer id="248" name="StatefulPartitionedCall/model/conv2d_46/Conv2D/Transpose26813_const" type="Const" version="opset1">
			<data offset="18927492" size="2359296" shape="256,256,3,3" element_type="f32"/>
			<output>
				<port id="1" precision="FP32">
					<dim>256</dim>
					<dim>256</dim>
					<dim>3</dim>
					<dim>3</dim>
				</port>
			</output>
		</layer>
		<layer id="249" name="StatefulPartitionedCall/model/conv2d_46/Conv2D" type="Convolution" version="opset1">
			<data auto_pad="same_upper" strides="1,1" dilations="1,1" pads_begin="0,0" pads_end="0,0" output_padding="0,0"/>
			<input>
				<port id="0">
					<dim>1</dim>
					<dim>256</dim>
					<dim>38</dim>
					<dim>38</dim>
				</port>
				<port id="1">
					<dim>256</dim>
					<dim>256</dim>
					<dim>3</dim>
					<dim>3</dim>
				</port>
			</input>
			<output>
				<port id="2" precision="FP32">
					<dim>1</dim>
					<dim>256</dim>
					<dim>38</dim>
					<dim>38</dim>
				</port>
			</output>
		</layer>
		<layer id="250" name="data_add_214212142622122/EltwiseUnsqueeze22630_const" type="Const" version="opset1">
			<data offset="21286788" size="1024" shape="1,256,1,1" element_type="f32"/>
			<output>
				<port id="1" precision="FP32">
					<dim>1</dim>
					<dim>256</dim>
					<dim>1</dim>
					<dim>1</dim>
				</port>
			</output>
		</layer>
		<layer id="251" name="StatefulPartitionedCall/model/batch_normalization_46/FusedBatchNormV3/variance/Fused_Add_" type="Add" version="opset1">
			<input>
				<port id="0">
					<dim>1</dim>
					<dim>256</dim>
					<dim>38</dim>
					<dim>38</dim>
				</port>
				<port id="1">
					<dim>1</dim>
					<dim>256</dim>
					<dim>1</dim>
					<dim>1</dim>
				</port>
			</input>
			<output>
				<port id="2" precision="FP32">
					<dim>1</dim>
					<dim>256</dim>
					<dim>38</dim>
					<dim>38</dim>
				</port>
			</output>
		</layer>
		<layer id="252" name="StatefulPartitionedCall/model/activation_46/mul" type="Mish" version="opset4">
			<input>
				<port id="0">
					<dim>1</dim>
					<dim>256</dim>
					<dim>38</dim>
					<dim>38</dim>
				</port>
			</input>
			<output>
				<port id="1" precision="FP32">
					<dim>1</dim>
					<dim>256</dim>
					<dim>38</dim>
					<dim>38</dim>
				</port>
			</output>
		</layer>
		<layer id="253" name="StatefulPartitionedCall/model/add_13/add" type="Add" version="opset1">
			<input>
				<port id="0">
					<dim>1</dim>
					<dim>256</dim>
					<dim>38</dim>
					<dim>38</dim>
				</port>
				<port id="1">
					<dim>1</dim>
					<dim>256</dim>
					<dim>38</dim>
					<dim>38</dim>
				</port>
			</input>
			<output>
				<port id="2" precision="FP32">
					<dim>1</dim>
					<dim>256</dim>
					<dim>38</dim>
					<dim>38</dim>
				</port>
			</output>
		</layer>
		<layer id="254" name="StatefulPartitionedCall/model/conv2d_47/Conv2D/Transpose26817_const" type="Const" version="opset1">
			<data offset="21287812" size="262144" shape="256,256,1,1" element_type="f32"/>
			<output>
				<port id="1" precision="FP32">
					<dim>256</dim>
					<dim>256</dim>
					<dim>1</dim>
					<dim>1</dim>
				</port>
			</output>
		</layer>
		<layer id="255" name="StatefulPartitionedCall/model/conv2d_47/Conv2D" type="Convolution" version="opset1">
			<data auto_pad="same_upper" strides="1,1" dilations="1,1" pads_begin="0,0" pads_end="0,0" output_padding="0,0"/>
			<input>
				<port id="0">
					<dim>1</dim>
					<dim>256</dim>
					<dim>38</dim>
					<dim>38</dim>
				</port>
				<port id="1">
					<dim>256</dim>
					<dim>256</dim>
					<dim>1</dim>
					<dim>1</dim>
				</port>
			</input>
			<output>
				<port id="2" precision="FP32">
					<dim>1</dim>
					<dim>256</dim>
					<dim>38</dim>
					<dim>38</dim>
				</port>
			</output>
		</layer>
		<layer id="256" name="data_add_214292143422124/EltwiseUnsqueeze22638_const" type="Const" version="opset1">
			<data offset="21549956" size="1024" shape="1,256,1,1" element_type="f32"/>
			<output>
				<port id="1" precision="FP32">
					<dim>1</dim>
					<dim>256</dim>
					<dim>1</dim>
					<dim>1</dim>
				</port>
			</output>
		</layer>
		<layer id="257" name="StatefulPartitionedCall/model/batch_normalization_47/FusedBatchNormV3/variance/Fused_Add_" type="Add" version="opset1">
			<input>
				<port id="0">
					<dim>1</dim>
					<dim>256</dim>
					<dim>38</dim>
					<dim>38</dim>
				</port>
				<port id="1">
					<dim>1</dim>
					<dim>256</dim>
					<dim>1</dim>
					<dim>1</dim>
				</port>
			</input>
			<output>
				<port id="2" precision="FP32">
					<dim>1</dim>
					<dim>256</dim>
					<dim>38</dim>
					<dim>38</dim>
				</port>
			</output>
		</layer>
		<layer id="258" name="StatefulPartitionedCall/model/activation_47/mul" type="Mish" version="opset4">
			<input>
				<port id="0">
					<dim>1</dim>
					<dim>256</dim>
					<dim>38</dim>
					<dim>38</dim>
				</port>
			</input>
			<output>
				<port id="1" precision="FP32">
					<dim>1</dim>
					<dim>256</dim>
					<dim>38</dim>
					<dim>38</dim>
				</port>
			</output>
		</layer>
		<layer id="259" name="StatefulPartitionedCall/model/conv2d_48/Conv2D/Transpose26821_const" type="Const" version="opset1">
			<data offset="21550980" size="2359296" shape="256,256,3,3" element_type="f32"/>
			<output>
				<port id="1" precision="FP32">
					<dim>256</dim>
					<dim>256</dim>
					<dim>3</dim>
					<dim>3</dim>
				</port>
			</output>
		</layer>
		<layer id="260" name="StatefulPartitionedCall/model/conv2d_48/Conv2D" type="Convolution" version="opset1">
			<data auto_pad="same_upper" strides="1,1" dilations="1,1" pads_begin="0,0" pads_end="0,0" output_padding="0,0"/>
			<input>
				<port id="0">
					<dim>1</dim>
					<dim>256</dim>
					<dim>38</dim>
					<dim>38</dim>
				</port>
				<port id="1">
					<dim>256</dim>
					<dim>256</dim>
					<dim>3</dim>
					<dim>3</dim>
				</port>
			</input>
			<output>
				<port id="2" precision="FP32">
					<dim>1</dim>
					<dim>256</dim>
					<dim>38</dim>
					<dim>38</dim>
				</port>
			</output>
		</layer>
		<layer id="261" name="data_add_214372144222126/EltwiseUnsqueeze22646_const" type="Const" version="opset1">
			<data offset="23910276" size="1024" shape="1,256,1,1" element_type="f32"/>
			<output>
				<port id="1" precision="FP32">
					<dim>1</dim>
					<dim>256</dim>
					<dim>1</dim>
					<dim>1</dim>
				</port>
			</output>
		</layer>
		<layer id="262" name="StatefulPartitionedCall/model/batch_normalization_48/FusedBatchNormV3/variance/Fused_Add_" type="Add" version="opset1">
			<input>
				<port id="0">
					<dim>1</dim>
					<dim>256</dim>
					<dim>38</dim>
					<dim>38</dim>
				</port>
				<port id="1">
					<dim>1</dim>
					<dim>256</dim>
					<dim>1</dim>
					<dim>1</dim>
				</port>
			</input>
			<output>
				<port id="2" precision="FP32">
					<dim>1</dim>
					<dim>256</dim>
					<dim>38</dim>
					<dim>38</dim>
				</port>
			</output>
		</layer>
		<layer id="263" name="StatefulPartitionedCall/model/activation_48/mul" type="Mish" version="opset4">
			<input>
				<port id="0">
					<dim>1</dim>
					<dim>256</dim>
					<dim>38</dim>
					<dim>38</dim>
				</port>
			</input>
			<output>
				<port id="1" precision="FP32">
					<dim>1</dim>
					<dim>256</dim>
					<dim>38</dim>
					<dim>38</dim>
				</port>
			</output>
		</layer>
		<layer id="264" name="StatefulPartitionedCall/model/add_14/add" type="Add" version="opset1">
			<input>
				<port id="0">
					<dim>1</dim>
					<dim>256</dim>
					<dim>38</dim>
					<dim>38</dim>
				</port>
				<port id="1">
					<dim>1</dim>
					<dim>256</dim>
					<dim>38</dim>
					<dim>38</dim>
				</port>
			</input>
			<output>
				<port id="2" precision="FP32">
					<dim>1</dim>
					<dim>256</dim>
					<dim>38</dim>
					<dim>38</dim>
				</port>
			</output>
		</layer>
		<layer id="265" name="StatefulPartitionedCall/model/conv2d_49/Conv2D/Transpose26825_const" type="Const" version="opset1">
			<data offset="23911300" size="262144" shape="256,256,1,1" element_type="f32"/>
			<output>
				<port id="1" precision="FP32">
					<dim>256</dim>
					<dim>256</dim>
					<dim>1</dim>
					<dim>1</dim>
				</port>
			</output>
		</layer>
		<layer id="266" name="StatefulPartitionedCall/model/conv2d_49/Conv2D" type="Convolution" version="opset1">
			<data auto_pad="same_upper" strides="1,1" dilations="1,1" pads_begin="0,0" pads_end="0,0" output_padding="0,0"/>
			<input>
				<port id="0">
					<dim>1</dim>
					<dim>256</dim>
					<dim>38</dim>
					<dim>38</dim>
				</port>
				<port id="1">
					<dim>256</dim>
					<dim>256</dim>
					<dim>1</dim>
					<dim>1</dim>
				</port>
			</input>
			<output>
				<port id="2" precision="FP32">
					<dim>1</dim>
					<dim>256</dim>
					<dim>38</dim>
					<dim>38</dim>
				</port>
			</output>
		</layer>
		<layer id="267" name="data_add_214452145022128/EltwiseUnsqueeze22654_const" type="Const" version="opset1">
			<data offset="24173444" size="1024" shape="1,256,1,1" element_type="f32"/>
			<output>
				<port id="1" precision="FP32">
					<dim>1</dim>
					<dim>256</dim>
					<dim>1</dim>
					<dim>1</dim>
				</port>
			</output>
		</layer>
		<layer id="268" name="StatefulPartitionedCall/model/batch_normalization_49/FusedBatchNormV3/variance/Fused_Add_" type="Add" version="opset1">
			<input>
				<port id="0">
					<dim>1</dim>
					<dim>256</dim>
					<dim>38</dim>
					<dim>38</dim>
				</port>
				<port id="1">
					<dim>1</dim>
					<dim>256</dim>
					<dim>1</dim>
					<dim>1</dim>
				</port>
			</input>
			<output>
				<port id="2" precision="FP32">
					<dim>1</dim>
					<dim>256</dim>
					<dim>38</dim>
					<dim>38</dim>
				</port>
			</output>
		</layer>
		<layer id="269" name="StatefulPartitionedCall/model/activation_49/mul" type="Mish" version="opset4">
			<input>
				<port id="0">
					<dim>1</dim>
					<dim>256</dim>
					<dim>38</dim>
					<dim>38</dim>
				</port>
			</input>
			<output>
				<port id="1" precision="FP32">
					<dim>1</dim>
					<dim>256</dim>
					<dim>38</dim>
					<dim>38</dim>
				</port>
			</output>
		</layer>
		<layer id="270" name="StatefulPartitionedCall/model/conv2d_50/Conv2D/Transpose26829_const" type="Const" version="opset1">
			<data offset="24174468" size="2359296" shape="256,256,3,3" element_type="f32"/>
			<output>
				<port id="1" precision="FP32">
					<dim>256</dim>
					<dim>256</dim>
					<dim>3</dim>
					<dim>3</dim>
				</port>
			</output>
		</layer>
		<layer id="271" name="StatefulPartitionedCall/model/conv2d_50/Conv2D" type="Convolution" version="opset1">
			<data auto_pad="same_upper" strides="1,1" dilations="1,1" pads_begin="0,0" pads_end="0,0" output_padding="0,0"/>
			<input>
				<port id="0">
					<dim>1</dim>
					<dim>256</dim>
					<dim>38</dim>
					<dim>38</dim>
				</port>
				<port id="1">
					<dim>256</dim>
					<dim>256</dim>
					<dim>3</dim>
					<dim>3</dim>
				</port>
			</input>
			<output>
				<port id="2" precision="FP32">
					<dim>1</dim>
					<dim>256</dim>
					<dim>38</dim>
					<dim>38</dim>
				</port>
			</output>
		</layer>
		<layer id="272" name="data_add_214532145822130/EltwiseUnsqueeze22662_const" type="Const" version="opset1">
			<data offset="26533764" size="1024" shape="1,256,1,1" element_type="f32"/>
			<output>
				<port id="1" precision="FP32">
					<dim>1</dim>
					<dim>256</dim>
					<dim>1</dim>
					<dim>1</dim>
				</port>
			</output>
		</layer>
		<layer id="273" name="StatefulPartitionedCall/model/batch_normalization_50/FusedBatchNormV3/variance/Fused_Add_" type="Add" version="opset1">
			<input>
				<port id="0">
					<dim>1</dim>
					<dim>256</dim>
					<dim>38</dim>
					<dim>38</dim>
				</port>
				<port id="1">
					<dim>1</dim>
					<dim>256</dim>
					<dim>1</dim>
					<dim>1</dim>
				</port>
			</input>
			<output>
				<port id="2" precision="FP32">
					<dim>1</dim>
					<dim>256</dim>
					<dim>38</dim>
					<dim>38</dim>
				</port>
			</output>
		</layer>
		<layer id="274" name="StatefulPartitionedCall/model/activation_50/mul" type="Mish" version="opset4">
			<input>
				<port id="0">
					<dim>1</dim>
					<dim>256</dim>
					<dim>38</dim>
					<dim>38</dim>
				</port>
			</input>
			<output>
				<port id="1" precision="FP32">
					<dim>1</dim>
					<dim>256</dim>
					<dim>38</dim>
					<dim>38</dim>
				</port>
			</output>
		</layer>
		<layer id="275" name="StatefulPartitionedCall/model/add_15/add" type="Add" version="opset1">
			<input>
				<port id="0">
					<dim>1</dim>
					<dim>256</dim>
					<dim>38</dim>
					<dim>38</dim>
				</port>
				<port id="1">
					<dim>1</dim>
					<dim>256</dim>
					<dim>38</dim>
					<dim>38</dim>
				</port>
			</input>
			<output>
				<port id="2" precision="FP32">
					<dim>1</dim>
					<dim>256</dim>
					<dim>38</dim>
					<dim>38</dim>
				</port>
			</output>
		</layer>
		<layer id="276" name="StatefulPartitionedCall/model/conv2d_51/Conv2D/Transpose26833_const" type="Const" version="opset1">
			<data offset="26534788" size="262144" shape="256,256,1,1" element_type="f32"/>
			<output>
				<port id="1" precision="FP32">
					<dim>256</dim>
					<dim>256</dim>
					<dim>1</dim>
					<dim>1</dim>
				</port>
			</output>
		</layer>
		<layer id="277" name="StatefulPartitionedCall/model/conv2d_51/Conv2D" type="Convolution" version="opset1">
			<data auto_pad="same_upper" strides="1,1" dilations="1,1" pads_begin="0,0" pads_end="0,0" output_padding="0,0"/>
			<input>
				<port id="0">
					<dim>1</dim>
					<dim>256</dim>
					<dim>38</dim>
					<dim>38</dim>
				</port>
				<port id="1">
					<dim>256</dim>
					<dim>256</dim>
					<dim>1</dim>
					<dim>1</dim>
				</port>
			</input>
			<output>
				<port id="2" precision="FP32">
					<dim>1</dim>
					<dim>256</dim>
					<dim>38</dim>
					<dim>38</dim>
				</port>
			</output>
		</layer>
		<layer id="278" name="data_add_214612146622132/EltwiseUnsqueeze22670_const" type="Const" version="opset1">
			<data offset="26796932" size="1024" shape="1,256,1,1" element_type="f32"/>
			<output>
				<port id="1" precision="FP32">
					<dim>1</dim>
					<dim>256</dim>
					<dim>1</dim>
					<dim>1</dim>
				</port>
			</output>
		</layer>
		<layer id="279" name="StatefulPartitionedCall/model/batch_normalization_51/FusedBatchNormV3/variance/Fused_Add_" type="Add" version="opset1">
			<input>
				<port id="0">
					<dim>1</dim>
					<dim>256</dim>
					<dim>38</dim>
					<dim>38</dim>
				</port>
				<port id="1">
					<dim>1</dim>
					<dim>256</dim>
					<dim>1</dim>
					<dim>1</dim>
				</port>
			</input>
			<output>
				<port id="2" precision="FP32">
					<dim>1</dim>
					<dim>256</dim>
					<dim>38</dim>
					<dim>38</dim>
				</port>
			</output>
		</layer>
		<layer id="280" name="StatefulPartitionedCall/model/activation_51/mul" type="Mish" version="opset4">
			<input>
				<port id="0">
					<dim>1</dim>
					<dim>256</dim>
					<dim>38</dim>
					<dim>38</dim>
				</port>
			</input>
			<output>
				<port id="1" precision="FP32">
					<dim>1</dim>
					<dim>256</dim>
					<dim>38</dim>
					<dim>38</dim>
				</port>
			</output>
		</layer>
		<layer id="281" name="StatefulPartitionedCall/model/conv2d_52/Conv2D/Transpose26837_const" type="Const" version="opset1">
			<data offset="26797956" size="2359296" shape="256,256,3,3" element_type="f32"/>
			<output>
				<port id="1" precision="FP32">
					<dim>256</dim>
					<dim>256</dim>
					<dim>3</dim>
					<dim>3</dim>
				</port>
			</output>
		</layer>
		<layer id="282" name="StatefulPartitionedCall/model/conv2d_52/Conv2D" type="Convolution" version="opset1">
			<data auto_pad="same_upper" strides="1,1" dilations="1,1" pads_begin="0,0" pads_end="0,0" output_padding="0,0"/>
			<input>
				<port id="0">
					<dim>1</dim>
					<dim>256</dim>
					<dim>38</dim>
					<dim>38</dim>
				</port>
				<port id="1">
					<dim>256</dim>
					<dim>256</dim>
					<dim>3</dim>
					<dim>3</dim>
				</port>
			</input>
			<output>
				<port id="2" precision="FP32">
					<dim>1</dim>
					<dim>256</dim>
					<dim>38</dim>
					<dim>38</dim>
				</port>
			</output>
		</layer>
		<layer id="283" name="data_add_214692147422134/EltwiseUnsqueeze22678_const" type="Const" version="opset1">
			<data offset="29157252" size="1024" shape="1,256,1,1" element_type="f32"/>
			<output>
				<port id="1" precision="FP32">
					<dim>1</dim>
					<dim>256</dim>
					<dim>1</dim>
					<dim>1</dim>
				</port>
			</output>
		</layer>
		<layer id="284" name="StatefulPartitionedCall/model/batch_normalization_52/FusedBatchNormV3/variance/Fused_Add_" type="Add" version="opset1">
			<input>
				<port id="0">
					<dim>1</dim>
					<dim>256</dim>
					<dim>38</dim>
					<dim>38</dim>
				</port>
				<port id="1">
					<dim>1</dim>
					<dim>256</dim>
					<dim>1</dim>
					<dim>1</dim>
				</port>
			</input>
			<output>
				<port id="2" precision="FP32">
					<dim>1</dim>
					<dim>256</dim>
					<dim>38</dim>
					<dim>38</dim>
				</port>
			</output>
		</layer>
		<layer id="285" name="StatefulPartitionedCall/model/activation_52/mul" type="Mish" version="opset4">
			<input>
				<port id="0">
					<dim>1</dim>
					<dim>256</dim>
					<dim>38</dim>
					<dim>38</dim>
				</port>
			</input>
			<output>
				<port id="1" precision="FP32">
					<dim>1</dim>
					<dim>256</dim>
					<dim>38</dim>
					<dim>38</dim>
				</port>
			</output>
		</layer>
		<layer id="286" name="StatefulPartitionedCall/model/add_16/add" type="Add" version="opset1">
			<input>
				<port id="0">
					<dim>1</dim>
					<dim>256</dim>
					<dim>38</dim>
					<dim>38</dim>
				</port>
				<port id="1">
					<dim>1</dim>
					<dim>256</dim>
					<dim>38</dim>
					<dim>38</dim>
				</port>
			</input>
			<output>
				<port id="2" precision="FP32">
					<dim>1</dim>
					<dim>256</dim>
					<dim>38</dim>
					<dim>38</dim>
				</port>
			</output>
		</layer>
		<layer id="287" name="StatefulPartitionedCall/model/conv2d_53/Conv2D/Transpose26841_const" type="Const" version="opset1">
			<data offset="29158276" size="262144" shape="256,256,1,1" element_type="f32"/>
			<output>
				<port id="1" precision="FP32">
					<dim>256</dim>
					<dim>256</dim>
					<dim>1</dim>
					<dim>1</dim>
				</port>
			</output>
		</layer>
		<layer id="288" name="StatefulPartitionedCall/model/conv2d_53/Conv2D" type="Convolution" version="opset1">
			<data auto_pad="same_upper" strides="1,1" dilations="1,1" pads_begin="0,0" pads_end="0,0" output_padding="0,0"/>
			<input>
				<port id="0">
					<dim>1</dim>
					<dim>256</dim>
					<dim>38</dim>
					<dim>38</dim>
				</port>
				<port id="1">
					<dim>256</dim>
					<dim>256</dim>
					<dim>1</dim>
					<dim>1</dim>
				</port>
			</input>
			<output>
				<port id="2" precision="FP32">
					<dim>1</dim>
					<dim>256</dim>
					<dim>38</dim>
					<dim>38</dim>
				</port>
			</output>
		</layer>
		<layer id="289" name="data_add_214772148222136/EltwiseUnsqueeze22686_const" type="Const" version="opset1">
			<data offset="29420420" size="1024" shape="1,256,1,1" element_type="f32"/>
			<output>
				<port id="1" precision="FP32">
					<dim>1</dim>
					<dim>256</dim>
					<dim>1</dim>
					<dim>1</dim>
				</port>
			</output>
		</layer>
		<layer id="290" name="StatefulPartitionedCall/model/batch_normalization_53/FusedBatchNormV3/variance/Fused_Add_" type="Add" version="opset1">
			<input>
				<port id="0">
					<dim>1</dim>
					<dim>256</dim>
					<dim>38</dim>
					<dim>38</dim>
				</port>
				<port id="1">
					<dim>1</dim>
					<dim>256</dim>
					<dim>1</dim>
					<dim>1</dim>
				</port>
			</input>
			<output>
				<port id="2" precision="FP32">
					<dim>1</dim>
					<dim>256</dim>
					<dim>38</dim>
					<dim>38</dim>
				</port>
			</output>
		</layer>
		<layer id="291" name="StatefulPartitionedCall/model/activation_53/mul" type="Mish" version="opset4">
			<input>
				<port id="0">
					<dim>1</dim>
					<dim>256</dim>
					<dim>38</dim>
					<dim>38</dim>
				</port>
			</input>
			<output>
				<port id="1" precision="FP32">
					<dim>1</dim>
					<dim>256</dim>
					<dim>38</dim>
					<dim>38</dim>
				</port>
			</output>
		</layer>
		<layer id="292" name="StatefulPartitionedCall/model/conv2d_54/Conv2D/Transpose26845_const" type="Const" version="opset1">
			<data offset="29421444" size="2359296" shape="256,256,3,3" element_type="f32"/>
			<output>
				<port id="1" precision="FP32">
					<dim>256</dim>
					<dim>256</dim>
					<dim>3</dim>
					<dim>3</dim>
				</port>
			</output>
		</layer>
		<layer id="293" name="StatefulPartitionedCall/model/conv2d_54/Conv2D" type="Convolution" version="opset1">
			<data auto_pad="same_upper" strides="1,1" dilations="1,1" pads_begin="0,0" pads_end="0,0" output_padding="0,0"/>
			<input>
				<port id="0">
					<dim>1</dim>
					<dim>256</dim>
					<dim>38</dim>
					<dim>38</dim>
				</port>
				<port id="1">
					<dim>256</dim>
					<dim>256</dim>
					<dim>3</dim>
					<dim>3</dim>
				</port>
			</input>
			<output>
				<port id="2" precision="FP32">
					<dim>1</dim>
					<dim>256</dim>
					<dim>38</dim>
					<dim>38</dim>
				</port>
			</output>
		</layer>
		<layer id="294" name="data_add_214852149022138/EltwiseUnsqueeze22694_const" type="Const" version="opset1">
			<data offset="31780740" size="1024" shape="1,256,1,1" element_type="f32"/>
			<output>
				<port id="1" precision="FP32">
					<dim>1</dim>
					<dim>256</dim>
					<dim>1</dim>
					<dim>1</dim>
				</port>
			</output>
		</layer>
		<layer id="295" name="StatefulPartitionedCall/model/batch_normalization_54/FusedBatchNormV3/variance/Fused_Add_" type="Add" version="opset1">
			<input>
				<port id="0">
					<dim>1</dim>
					<dim>256</dim>
					<dim>38</dim>
					<dim>38</dim>
				</port>
				<port id="1">
					<dim>1</dim>
					<dim>256</dim>
					<dim>1</dim>
					<dim>1</dim>
				</port>
			</input>
			<output>
				<port id="2" precision="FP32">
					<dim>1</dim>
					<dim>256</dim>
					<dim>38</dim>
					<dim>38</dim>
				</port>
			</output>
		</layer>
		<layer id="296" name="StatefulPartitionedCall/model/activation_54/mul" type="Mish" version="opset4">
			<input>
				<port id="0">
					<dim>1</dim>
					<dim>256</dim>
					<dim>38</dim>
					<dim>38</dim>
				</port>
			</input>
			<output>
				<port id="1" precision="FP32">
					<dim>1</dim>
					<dim>256</dim>
					<dim>38</dim>
					<dim>38</dim>
				</port>
			</output>
		</layer>
		<layer id="297" name="StatefulPartitionedCall/model/add_17/add" type="Add" version="opset1">
			<input>
				<port id="0">
					<dim>1</dim>
					<dim>256</dim>
					<dim>38</dim>
					<dim>38</dim>
				</port>
				<port id="1">
					<dim>1</dim>
					<dim>256</dim>
					<dim>38</dim>
					<dim>38</dim>
				</port>
			</input>
			<output>
				<port id="2" precision="FP32">
					<dim>1</dim>
					<dim>256</dim>
					<dim>38</dim>
					<dim>38</dim>
				</port>
			</output>
		</layer>
		<layer id="298" name="StatefulPartitionedCall/model/conv2d_55/Conv2D/Transpose26849_const" type="Const" version="opset1">
			<data offset="31781764" size="262144" shape="256,256,1,1" element_type="f32"/>
			<output>
				<port id="1" precision="FP32">
					<dim>256</dim>
					<dim>256</dim>
					<dim>1</dim>
					<dim>1</dim>
				</port>
			</output>
		</layer>
		<layer id="299" name="StatefulPartitionedCall/model/conv2d_55/Conv2D" type="Convolution" version="opset1">
			<data auto_pad="same_upper" strides="1,1" dilations="1,1" pads_begin="0,0" pads_end="0,0" output_padding="0,0"/>
			<input>
				<port id="0">
					<dim>1</dim>
					<dim>256</dim>
					<dim>38</dim>
					<dim>38</dim>
				</port>
				<port id="1">
					<dim>256</dim>
					<dim>256</dim>
					<dim>1</dim>
					<dim>1</dim>
				</port>
			</input>
			<output>
				<port id="2" precision="FP32">
					<dim>1</dim>
					<dim>256</dim>
					<dim>38</dim>
					<dim>38</dim>
				</port>
			</output>
		</layer>
		<layer id="300" name="data_add_214932149822140/EltwiseUnsqueeze22702_const" type="Const" version="opset1">
			<data offset="32043908" size="1024" shape="1,256,1,1" element_type="f32"/>
			<output>
				<port id="1" precision="FP32">
					<dim>1</dim>
					<dim>256</dim>
					<dim>1</dim>
					<dim>1</dim>
				</port>
			</output>
		</layer>
		<layer id="301" name="StatefulPartitionedCall/model/batch_normalization_55/FusedBatchNormV3/variance/Fused_Add_" type="Add" version="opset1">
			<input>
				<port id="0">
					<dim>1</dim>
					<dim>256</dim>
					<dim>38</dim>
					<dim>38</dim>
				</port>
				<port id="1">
					<dim>1</dim>
					<dim>256</dim>
					<dim>1</dim>
					<dim>1</dim>
				</port>
			</input>
			<output>
				<port id="2" precision="FP32">
					<dim>1</dim>
					<dim>256</dim>
					<dim>38</dim>
					<dim>38</dim>
				</port>
			</output>
		</layer>
		<layer id="302" name="StatefulPartitionedCall/model/activation_55/mul" type="Mish" version="opset4">
			<input>
				<port id="0">
					<dim>1</dim>
					<dim>256</dim>
					<dim>38</dim>
					<dim>38</dim>
				</port>
			</input>
			<output>
				<port id="1" precision="FP32">
					<dim>1</dim>
					<dim>256</dim>
					<dim>38</dim>
					<dim>38</dim>
				</port>
			</output>
		</layer>
		<layer id="303" name="StatefulPartitionedCall/model/conv2d_56/Conv2D/Transpose26853_const" type="Const" version="opset1">
			<data offset="32044932" size="2359296" shape="256,256,3,3" element_type="f32"/>
			<output>
				<port id="1" precision="FP32">
					<dim>256</dim>
					<dim>256</dim>
					<dim>3</dim>
					<dim>3</dim>
				</port>
			</output>
		</layer>
		<layer id="304" name="StatefulPartitionedCall/model/conv2d_56/Conv2D" type="Convolution" version="opset1">
			<data auto_pad="same_upper" strides="1,1" dilations="1,1" pads_begin="0,0" pads_end="0,0" output_padding="0,0"/>
			<input>
				<port id="0">
					<dim>1</dim>
					<dim>256</dim>
					<dim>38</dim>
					<dim>38</dim>
				</port>
				<port id="1">
					<dim>256</dim>
					<dim>256</dim>
					<dim>3</dim>
					<dim>3</dim>
				</port>
			</input>
			<output>
				<port id="2" precision="FP32">
					<dim>1</dim>
					<dim>256</dim>
					<dim>38</dim>
					<dim>38</dim>
				</port>
			</output>
		</layer>
		<layer id="305" name="data_add_215012150622142/EltwiseUnsqueeze22710_const" type="Const" version="opset1">
			<data offset="34404228" size="1024" shape="1,256,1,1" element_type="f32"/>
			<output>
				<port id="1" precision="FP32">
					<dim>1</dim>
					<dim>256</dim>
					<dim>1</dim>
					<dim>1</dim>
				</port>
			</output>
		</layer>
		<layer id="306" name="StatefulPartitionedCall/model/batch_normalization_56/FusedBatchNormV3/variance/Fused_Add_" type="Add" version="opset1">
			<input>
				<port id="0">
					<dim>1</dim>
					<dim>256</dim>
					<dim>38</dim>
					<dim>38</dim>
				</port>
				<port id="1">
					<dim>1</dim>
					<dim>256</dim>
					<dim>1</dim>
					<dim>1</dim>
				</port>
			</input>
			<output>
				<port id="2" precision="FP32">
					<dim>1</dim>
					<dim>256</dim>
					<dim>38</dim>
					<dim>38</dim>
				</port>
			</output>
		</layer>
		<layer id="307" name="StatefulPartitionedCall/model/activation_56/mul" type="Mish" version="opset4">
			<input>
				<port id="0">
					<dim>1</dim>
					<dim>256</dim>
					<dim>38</dim>
					<dim>38</dim>
				</port>
			</input>
			<output>
				<port id="1" precision="FP32">
					<dim>1</dim>
					<dim>256</dim>
					<dim>38</dim>
					<dim>38</dim>
				</port>
			</output>
		</layer>
		<layer id="308" name="StatefulPartitionedCall/model/add_18/add" type="Add" version="opset1">
			<input>
				<port id="0">
					<dim>1</dim>
					<dim>256</dim>
					<dim>38</dim>
					<dim>38</dim>
				</port>
				<port id="1">
					<dim>1</dim>
					<dim>256</dim>
					<dim>38</dim>
					<dim>38</dim>
				</port>
			</input>
			<output>
				<port id="2" precision="FP32">
					<dim>1</dim>
					<dim>256</dim>
					<dim>38</dim>
					<dim>38</dim>
				</port>
			</output>
		</layer>
		<layer id="309" name="StatefulPartitionedCall/model/conv2d_57/Conv2D/Transpose26857_const" type="Const" version="opset1">
			<data offset="34405252" size="262144" shape="256,256,1,1" element_type="f32"/>
			<output>
				<port id="1" precision="FP32">
					<dim>256</dim>
					<dim>256</dim>
					<dim>1</dim>
					<dim>1</dim>
				</port>
			</output>
		</layer>
		<layer id="310" name="StatefulPartitionedCall/model/conv2d_57/Conv2D" type="Convolution" version="opset1">
			<data auto_pad="same_upper" strides="1,1" dilations="1,1" pads_begin="0,0" pads_end="0,0" output_padding="0,0"/>
			<input>
				<port id="0">
					<dim>1</dim>
					<dim>256</dim>
					<dim>38</dim>
					<dim>38</dim>
				</port>
				<port id="1">
					<dim>256</dim>
					<dim>256</dim>
					<dim>1</dim>
					<dim>1</dim>
				</port>
			</input>
			<output>
				<port id="2" precision="FP32">
					<dim>1</dim>
					<dim>256</dim>
					<dim>38</dim>
					<dim>38</dim>
				</port>
			</output>
		</layer>
		<layer id="311" name="data_add_215092151422144/EltwiseUnsqueeze22718_const" type="Const" version="opset1">
			<data offset="34667396" size="1024" shape="1,256,1,1" element_type="f32"/>
			<output>
				<port id="1" precision="FP32">
					<dim>1</dim>
					<dim>256</dim>
					<dim>1</dim>
					<dim>1</dim>
				</port>
			</output>
		</layer>
		<layer id="312" name="StatefulPartitionedCall/model/batch_normalization_57/FusedBatchNormV3/variance/Fused_Add_" type="Add" version="opset1">
			<input>
				<port id="0">
					<dim>1</dim>
					<dim>256</dim>
					<dim>38</dim>
					<dim>38</dim>
				</port>
				<port id="1">
					<dim>1</dim>
					<dim>256</dim>
					<dim>1</dim>
					<dim>1</dim>
				</port>
			</input>
			<output>
				<port id="2" precision="FP32">
					<dim>1</dim>
					<dim>256</dim>
					<dim>38</dim>
					<dim>38</dim>
				</port>
			</output>
		</layer>
		<layer id="313" name="StatefulPartitionedCall/model/activation_57/mul" type="Mish" version="opset4">
			<input>
				<port id="0">
					<dim>1</dim>
					<dim>256</dim>
					<dim>38</dim>
					<dim>38</dim>
				</port>
			</input>
			<output>
				<port id="1" precision="FP32">
					<dim>1</dim>
					<dim>256</dim>
					<dim>38</dim>
					<dim>38</dim>
				</port>
			</output>
		</layer>
		<layer id="314" name="StatefulPartitionedCall/model/conv2d_39/Conv2D/Transpose26861_const" type="Const" version="opset1">
			<data offset="34668420" size="524288" shape="256,512,1,1" element_type="f32"/>
			<output>
				<port id="1" precision="FP32">
					<dim>256</dim>
					<dim>512</dim>
					<dim>1</dim>
					<dim>1</dim>
				</port>
			</output>
		</layer>
		<layer id="315" name="StatefulPartitionedCall/model/conv2d_39/Conv2D" type="Convolution" version="opset1">
			<data auto_pad="same_upper" strides="1,1" dilations="1,1" pads_begin="0,0" pads_end="0,0" output_padding="0,0"/>
			<input>
				<port id="0">
					<dim>1</dim>
					<dim>512</dim>
					<dim>38</dim>
					<dim>38</dim>
				</port>
				<port id="1">
					<dim>256</dim>
					<dim>512</dim>
					<dim>1</dim>
					<dim>1</dim>
				</port>
			</input>
			<output>
				<port id="2" precision="FP32">
					<dim>1</dim>
					<dim>256</dim>
					<dim>38</dim>
					<dim>38</dim>
				</port>
			</output>
		</layer>
		<layer id="316" name="data_add_213652137022108/EltwiseUnsqueeze22574_const" type="Const" version="opset1">
			<data offset="35192708" size="1024" shape="1,256,1,1" element_type="f32"/>
			<output>
				<port id="1" precision="FP32">
					<dim>1</dim>
					<dim>256</dim>
					<dim>1</dim>
					<dim>1</dim>
				</port>
			</output>
		</layer>
		<layer id="317" name="StatefulPartitionedCall/model/batch_normalization_39/FusedBatchNormV3/variance/Fused_Add_" type="Add" version="opset1">
			<input>
				<port id="0">
					<dim>1</dim>
					<dim>256</dim>
					<dim>38</dim>
					<dim>38</dim>
				</port>
				<port id="1">
					<dim>1</dim>
					<dim>256</dim>
					<dim>1</dim>
					<dim>1</dim>
				</port>
			</input>
			<output>
				<port id="2" precision="FP32">
					<dim>1</dim>
					<dim>256</dim>
					<dim>38</dim>
					<dim>38</dim>
				</port>
			</output>
		</layer>
		<layer id="318" name="StatefulPartitionedCall/model/activation_39/mul" type="Mish" version="opset4">
			<input>
				<port id="0">
					<dim>1</dim>
					<dim>256</dim>
					<dim>38</dim>
					<dim>38</dim>
				</port>
			</input>
			<output>
				<port id="1" precision="FP32">
					<dim>1</dim>
					<dim>256</dim>
					<dim>38</dim>
					<dim>38</dim>
				</port>
			</output>
		</layer>
		<layer id="319" name="StatefulPartitionedCall/model/concatenate_3/concat" type="Concat" version="opset1">
			<data axis="1"/>
			<input>
				<port id="0">
					<dim>1</dim>
					<dim>256</dim>
					<dim>38</dim>
					<dim>38</dim>
				</port>
				<port id="1">
					<dim>1</dim>
					<dim>256</dim>
					<dim>38</dim>
					<dim>38</dim>
				</port>
			</input>
			<output>
				<port id="2" precision="FP32">
					<dim>1</dim>
					<dim>512</dim>
					<dim>38</dim>
					<dim>38</dim>
				</port>
			</output>
		</layer>
		<layer id="320" name="StatefulPartitionedCall/model/conv2d_58/Conv2D/Transpose26865_const" type="Const" version="opset1">
			<data offset="35193732" size="1048576" shape="512,512,1,1" element_type="f32"/>
			<output>
				<port id="1" precision="FP32">
					<dim>512</dim>
					<dim>512</dim>
					<dim>1</dim>
					<dim>1</dim>
				</port>
			</output>
		</layer>
		<layer id="321" name="StatefulPartitionedCall/model/conv2d_58/Conv2D" type="Convolution" version="opset1">
			<data auto_pad="same_upper" strides="1,1" dilations="1,1" pads_begin="0,0" pads_end="0,0" output_padding="0,0"/>
			<input>
				<port id="0">
					<dim>1</dim>
					<dim>512</dim>
					<dim>38</dim>
					<dim>38</dim>
				</port>
				<port id="1">
					<dim>512</dim>
					<dim>512</dim>
					<dim>1</dim>
					<dim>1</dim>
				</port>
			</input>
			<output>
				<port id="2" precision="FP32">
					<dim>1</dim>
					<dim>512</dim>
					<dim>38</dim>
					<dim>38</dim>
				</port>
			</output>
		</layer>
		<layer id="322" name="data_add_215172152222146/EltwiseUnsqueeze22726_const" type="Const" version="opset1">
			<data offset="36242308" size="2048" shape="1,512,1,1" element_type="f32"/>
			<output>
				<port id="1" precision="FP32">
					<dim>1</dim>
					<dim>512</dim>
					<dim>1</dim>
					<dim>1</dim>
				</port>
			</output>
		</layer>
		<layer id="323" name="StatefulPartitionedCall/model/batch_normalization_58/FusedBatchNormV3/variance/Fused_Add_" type="Add" version="opset1">
			<input>
				<port id="0">
					<dim>1</dim>
					<dim>512</dim>
					<dim>38</dim>
					<dim>38</dim>
				</port>
				<port id="1">
					<dim>1</dim>
					<dim>512</dim>
					<dim>1</dim>
					<dim>1</dim>
				</port>
			</input>
			<output>
				<port id="2" precision="FP32">
					<dim>1</dim>
					<dim>512</dim>
					<dim>38</dim>
					<dim>38</dim>
				</port>
			</output>
		</layer>
		<layer id="324" name="StatefulPartitionedCall/model/activation_58/mul" type="Mish" version="opset4">
			<input>
				<port id="0">
					<dim>1</dim>
					<dim>512</dim>
					<dim>38</dim>
					<dim>38</dim>
				</port>
			</input>
			<output>
				<port id="1" precision="FP32">
					<dim>1</dim>
					<dim>512</dim>
					<dim>38</dim>
					<dim>38</dim>
				</port>
			</output>
		</layer>
		<layer id="325" name="StatefulPartitionedCall/model/conv2d_79/Conv2D/Transpose26869_const" type="Const" version="opset1">
			<data offset="36244356" size="524288" shape="256,512,1,1" element_type="f32"/>
			<output>
				<port id="1" precision="FP32">
					<dim>256</dim>
					<dim>512</dim>
					<dim>1</dim>
					<dim>1</dim>
				</port>
			</output>
		</layer>
		<layer id="326" name="StatefulPartitionedCall/model/conv2d_79/Conv2D" type="Convolution" version="opset1">
			<data auto_pad="same_upper" strides="1,1" dilations="1,1" pads_begin="0,0" pads_end="0,0" output_padding="0,0"/>
			<input>
				<port id="0">
					<dim>1</dim>
					<dim>512</dim>
					<dim>38</dim>
					<dim>38</dim>
				</port>
				<port id="1">
					<dim>256</dim>
					<dim>512</dim>
					<dim>1</dim>
					<dim>1</dim>
				</port>
			</input>
			<output>
				<port id="2" precision="FP32">
					<dim>1</dim>
					<dim>256</dim>
					<dim>38</dim>
					<dim>38</dim>
				</port>
			</output>
		</layer>
		<layer id="327" name="data_add_216852169022188/EltwiseUnsqueeze22894_const" type="Const" version="opset1">
			<data offset="36768644" size="1024" shape="1,256,1,1" element_type="f32"/>
			<output>
				<port id="1" precision="FP32">
					<dim>1</dim>
					<dim>256</dim>
					<dim>1</dim>
					<dim>1</dim>
				</port>
			</output>
		</layer>
		<layer id="328" name="StatefulPartitionedCall/model/batch_normalization_79/FusedBatchNormV3/variance/Fused_Add_" type="Add" version="opset1">
			<input>
				<port id="0">
					<dim>1</dim>
					<dim>256</dim>
					<dim>38</dim>
					<dim>38</dim>
				</port>
				<port id="1">
					<dim>1</dim>
					<dim>256</dim>
					<dim>1</dim>
					<dim>1</dim>
				</port>
			</input>
			<output>
				<port id="2" precision="FP32">
					<dim>1</dim>
					<dim>256</dim>
					<dim>38</dim>
					<dim>38</dim>
				</port>
			</output>
		</layer>
		<layer id="329" name="StatefulPartitionedCall/model/leaky_re_lu_7/LeakyRelu/Cast_134678_const" type="Const" version="opset1">
			<data offset="8171392" size="4" shape="1" element_type="f32"/>
			<output>
				<port id="1" precision="FP32">
					<dim>1</dim>
				</port>
			</output>
		</layer>
		<layer id="330" name="StatefulPartitionedCall/model/leaky_re_lu_7/LeakyRelu" type="PReLU" version="opset1">
			<input>
				<port id="0">
					<dim>1</dim>
					<dim>256</dim>
					<dim>38</dim>
					<dim>38</dim>
				</port>
				<port id="1">
					<dim>1</dim>
				</port>
			</input>
			<output>
				<port id="2" precision="FP32">
					<dim>1</dim>
					<dim>256</dim>
					<dim>38</dim>
					<dim>38</dim>
				</port>
			</output>
		</layer>
		<layer id="331" name="StatefulPartitionedCall/model/conv2d_59/Conv2D/Transpose26873_const" type="Const" version="opset1">
			<data offset="36769668" size="18874368" shape="1024,512,3,3" element_type="f32"/>
			<output>
				<port id="1" precision="FP32">
					<dim>1024</dim>
					<dim>512</dim>
					<dim>3</dim>
					<dim>3</dim>
				</port>
			</output>
		</layer>
…
				</port>
				<port id="1">
					<dim>1</dim>
				</port>
			</input>
			<output>
				<port id="2" precision="FP32">
					<dim>1</dim>
					<dim>256</dim>
					<dim>76</dim>
					<dim>76</dim>
				</port>
			</output>
		</layer>
		<layer id="641" name="StatefulPartitionedCall/model/conv2d_93/Conv2D/Transpose27065_const" type="Const" version="opset1">
			<data offset="257057708" size="261120" shape="255,256,1,1" element_type="f32"/>
			<output>
				<port id="1" precision="FP32">
					<dim>255</dim>
					<dim>256</dim>
					<dim>1</dim>
					<dim>1</dim>
				</port>
			</output>
		</layer>
		<layer id="642" name="StatefulPartitionedCall/model/conv2d_93/Conv2D" type="Convolution" version="opset1">
			<data auto_pad="same_upper" strides="1,1" dilations="1,1" pads_begin="0,0" pads_end="0,0" output_padding="0,0"/>
			<input>
				<port id="0">
					<dim>1</dim>
					<dim>256</dim>
					<dim>76</dim>
					<dim>76</dim>
				</port>
				<port id="1">
					<dim>255</dim>
					<dim>256</dim>
					<dim>1</dim>
					<dim>1</dim>
				</port>
			</input>
			<output>
				<port id="2" precision="FP32">
					<dim>1</dim>
					<dim>255</dim>
					<dim>76</dim>
					<dim>76</dim>
				</port>
			</output>
		</layer>
		<layer id="643" name="StatefulPartitionedCall/model/conv2d_93/BiasAdd/ReadVariableOp/EltwiseUnsqueeze22250_const" type="Const" version="opset1">
			<data offset="257318828" size="1020" shape="1,255,1,1" element_type="f32"/>
			<output>
				<port id="1" precision="FP32">
					<dim>1</dim>
					<dim>255</dim>
					<dim>1</dim>
					<dim>1</dim>
				</port>
			</output>
		</layer>
		<layer id="644" name="StatefulPartitionedCall/model/conv2d_93/BiasAdd/Add" type="Add" version="opset1">
			<input>
				<port id="0">
					<dim>1</dim>
					<dim>255</dim>
					<dim>76</dim>
					<dim>76</dim>
				</port>
				<port id="1">
					<dim>1</dim>
					<dim>255</dim>
					<dim>1</dim>
					<dim>1</dim>
				</port>
			</input>
			<output>
				<port id="2" precision="FP32">
					<dim>1</dim>
					<dim>255</dim>
					<dim>76</dim>
					<dim>76</dim>
				</port>
			</output>
		</layer>
		<layer id="645" name="Identity_2/sink_port_0" type="Result" version="opset1">
			<input>
				<port id="0">
					<dim>1</dim>
					<dim>255</dim>
					<dim>76</dim>
					<dim>76</dim>
				</port>
			</input>
		</layer>
	</layers>
	<edges>
		<edge from-layer="0" from-port="0" to-layer="2" to-port="0"/>
		<edge from-layer="1" from-port="1" to-layer="2" to-port="1"/>
		<edge from-layer="2" from-port="2" to-layer="4" to-port="0"/>
		<edge from-layer="3" from-port="1" to-layer="4" to-port="1"/>
		<edge from-layer="4" from-port="2" to-layer="5" to-port="0"/>
		<edge from-layer="5" from-port="1" to-layer="7" to-port="0"/>
		<edge from-layer="6" from-port="1" to-layer="7" to-port="1"/>
		<edge from-layer="7" from-port="2" to-layer="9" to-port="0"/>
		<edge from-layer="8" from-port="1" to-layer="9" to-port="1"/>
		<edge from-layer="9" from-port="2" to-layer="10" to-port="0"/>
		<edge from-layer="10" from-port="1" to-layer="12" to-port="0"/>
		<edge from-layer="11" from-port="1" to-layer="12" to-port="1"/>
		<edge from-layer="12" from-port="2" to-layer="14" to-port="0"/>
		<edge from-layer="13" from-port="1" to-layer="14" to-port="1"/>
		<edge from-layer="14" from-port="2" to-layer="15" to-port="0"/>
		<edge from-layer="15" from-port="1" to-layer="17" to-port="0"/>
		<edge from-layer="16" from-port="1" to-layer="17" to-port="1"/>
		<edge from-layer="17" from-port="2" to-layer="19" to-port="0"/>
		<edge from-layer="18" from-port="1" to-layer="19" to-port="1"/>
		<edge from-layer="19" from-port="2" to-layer="20" to-port="0"/>
		<edge from-layer="20" from-port="1" to-layer="22" to-port="0"/>
		<edge from-layer="21" from-port="1" to-layer="22" to-port="1"/>
		<edge from-layer="22" from-port="2" to-layer="24" to-port="0"/>
		<edge from-layer="23" from-port="1" to-layer="24" to-port="1"/>
		<edge from-layer="24" from-port="2" to-layer="25" to-port="0"/>
		<edge from-layer="15" from-port="1" to-layer="26" to-port="0"/>
		<edge from-layer="25" from-port="1" to-layer="26" to-port="1"/>
		<edge from-layer="26" from-port="2" to-layer="28" to-port="0"/>
		<edge from-layer="27" from-port="1" to-layer="28" to-port="1"/>
		<edge from-layer="28" from-port="2" to-layer="30" to-port="0"/>
		<edge from-layer="29" from-port="1" to-layer="30" to-port="1"/>
		<edge from-layer="30" from-port="2" to-layer="31" to-port="0"/>
		<edge from-layer="10" from-port="1" to-layer="33" to-port="0"/>
		<edge from-layer="32" from-port="1" to-layer="33" to-port="1"/>
		<edge from-layer="33" from-port="2" to-layer="35" to-port="0"/>
		<edge from-layer="34" from-port="1" to-layer="35" to-port="1"/>
		<edge from-layer="35" from-port="2" to-layer="36" to-port="0"/>
		<edge from-layer="31" from-port="1" to-layer="37" to-port="0"/>
		<edge from-layer="36" from-port="1" to-layer="37" to-port="1"/>
		<edge from-layer="37" from-port="2" to-layer="39" to-port="0"/>
		<edge from-layer="38" from-port="1" to-layer="39" to-port="1"/>
		<edge from-layer="39" from-port="2" to-layer="41" to-port="0"/>
		<edge from-layer="40" from-port="1" to-layer="41" to-port="1"/>
		<edge from-layer="41" from-port="2" to-layer="42" to-port="0"/>
		<edge from-layer="42" from-port="1" to-layer="44" to-port="0"/>
		<edge from-layer="43" from-port="1" to-layer="44" to-port="1"/>
		<edge from-layer="44" from-port="2" to-layer="46" to-port="0"/>
		<edge from-layer="45" from-port="1" to-layer="46" to-port="1"/>
		<edge from-layer="46" from-port="2" to-layer="47" to-port="0"/>
		<edge from-layer="47" from-port="1" to-layer="49" to-port="0"/>
		<edge from-layer="48" from-port="1" to-layer="49" to-port="1"/>
		<edge from-layer="49" from-port="2" to-layer="51" to-port="0"/>
		<edge from-layer="50" from-port="1" to-layer="51" to-port="1"/>
		<edge from-layer="51" from-port="2" to-layer="52" to-port="0"/>
		<edge from-layer="52" from-port="1" to-layer="54" to-port="0"/>
		<edge from-layer="53" from-port="1" to-layer="54" to-port="1"/>
		<edge from-layer="54" from-port="2" to-layer="56" to-port="0"/>
		<edge from-layer="55" from-port="1" to-layer="56" to-port="1"/>
		<edge from-layer="56" from-port="2" to-layer="57" to-port="0"/>
		<edge from-layer="57" from-port="1" to-layer="59" to-port="0"/>
		<edge from-layer="58" from-port="1" to-layer="59" to-port="1"/>
		<edge from-layer="59" from-port="2" to-layer="61" to-port="0"/>
		<edge from-layer="60" from-port="1" to-layer="61" to-port="1"/>
		<edge from-layer="61" from-port="2" to-layer="62" to-port="0"/>
		<edge from-layer="52" from-port="1" to-layer="63" to-port="0"/>
		<edge from-layer="62" from-port="1" to-layer="63" to-port="1"/>
		<edge from-layer="63" from-port="2" to-layer="65" to-port="0"/>
		<edge from-layer="64" from-port="1" to-layer="65" to-port="1"/>
		<edge from-layer="65" from-port="2" to-layer="67" to-port="0"/>
		<edge from-layer="66" from-port="1" to-layer="67" to-port="1"/>
		<edge from-layer="67" from-port="2" to-layer="68" to-port="0"/>
		<edge from-layer="68" from-port="1" to-layer="70" to-port="0"/>
		<edge from-layer="69" from-port="1" to-layer="70" to-port="1"/>
		<edge from-layer="70" from-port="2" to-layer="72" to-port="0"/>
		<edge from-layer="71" from-port="1" to-layer="72" to-port="1"/>
		<edge from-layer="72" from-port="2" to-layer="73" to-port="0"/>
		<edge from-layer="63" from-port="2" to-layer="74" to-port="0"/>
		<edge from-layer="73" from-port="1" to-layer="74" to-port="1"/>
		<edge from-layer="74" from-port="2" to-layer="76" to-port="0"/>
		<edge from-layer="75" from-port="1" to-layer="76" to-port="1"/>
		<edge from-layer="76" from-port="2" to-layer="78" to-port="0"/>
		<edge from-layer="77" from-port="1" to-layer="78" to-port="1"/>
		<edge from-layer="78" from-port="2" to-layer="79" to-port="0"/>
		<edge from-layer="47" from-port="1" to-layer="81" to-port="0"/>
		<edge from-layer="80" from-port="1" to-layer="81" to-port="1"/>
		<edge from-layer="81" from-port="2" to-layer="83" to-port="0"/>
		<edge from-layer="82" from-port="1" to-layer="83" to-port="1"/>
		<edge from-layer="83" from-port="2" to-layer="84" to-port="0"/>
		<edge from-layer="79" from-port="1" to-layer="85" to-port="0"/>
		<edge from-layer="84" from-port="1" to-layer="85" to-port="1"/>
		<edge from-layer="85" from-port="2" to-layer="87" to-port="0"/>
		<edge from-layer="86" from-port="1" to-layer="87" to-port="1"/>
		<edge from-layer="87" from-port="2" to-layer="89" to-port="0"/>
		<edge from-layer="88" from-port="1" to-layer="89" to-port="1"/>
		<edge from-layer="89" from-port="2" to-layer="90" to-port="0"/>
		<edge from-layer="90" from-port="1" to-layer="92" to-port="0"/>
		<edge from-layer="91" from-port="1" to-layer="92" to-port="1"/>
		<edge from-layer="92" from-port="2" to-layer="94" to-port="0"/>
		<edge from-layer="93" from-port="1" to-layer="94" to-port="1"/>
		<edge from-layer="94" from-port="2" to-layer="95" to-port="0"/>
		<edge from-layer="95" from-port="1" to-layer="97" to-port="0"/>
		<edge from-layer="96" from-port="1" to-layer="97" to-port="1"/>
		<edge from-layer="97" from-port="2" to-layer="99" to-port="0"/>
		<edge from-layer="98" from-port="1" to-layer="99" to-port="1"/>
		<edge from-layer="99" from-port="2" to-layer="100" to-port="0"/>
		<edge from-layer="100" from-port="1" to-layer="102" to-port="0"/>
		<edge from-layer="101" from-port="1" to-layer="102" to-port="1"/>
		<edge from-layer="102" from-port="2" to-layer="104" to-port="0"/>
		<edge from-layer="103" from-port="1" to-layer="104" to-port="1"/>
		<edge from-layer="104" from-port="2" to-layer="105" to-port="0"/>
		<edge from-layer="105" from-port="1" to-layer="107" to-port="0"/>
		<edge from-layer="106" from-port="1" to-layer="107" to-port="1"/>
		<edge from-layer="107" from-port="2" to-layer="109" to-port="0"/>
		<edge from-layer="108" from-port="1" to-layer="109" to-port="1"/>
		<edge from-layer="109" from-port="2" to-layer="110" to-port="0"/>
		<edge from-layer="100" from-port="1" to-layer="111" to-port="0"/>
		<edge from-layer="110" from-port="1" to-layer="111" to-port="1"/>
		<edge from-layer="111" from-port="2" to-layer="113" to-port="0"/>
		<edge from-layer="112" from-port="1" to-layer="113" to-port="1"/>
		<edge from-layer="113" from-port="2" to-layer="115" to-port="0"/>
		<edge from-layer="114" from-port="1" to-layer="115" to-port="1"/>
		<edge from-layer="115" from-port="2" to-layer="116" to-port="0"/>
		<edge from-layer="116" from-port="1" to-layer="118" to-port="0"/>
		<edge from-layer="117" from-port="1" to-layer="118" to-port="1"/>
		<edge from-layer="118" from-port="2" to-layer="120" to-port="0"/>
		<edge from-layer="119" from-port="1" to-layer="120" to-port="1"/>
		<edge from-layer="120" from-port="2" to-layer="121" to-port="0"/>
		<edge from-layer="111" from-port="2" to-layer="122" to-port="0"/>
		<edge from-layer="121" from-port="1" to-layer="122" to-port="1"/>
		<edge from-layer="122" from-port="2" to-layer="124" to-port="0"/>
		<edge from-layer="123" from-port="1" to-layer="124" to-port="1"/>
		<edge from-layer="124" from-port="2" to-layer="126" to-port="0"/>
		<edge from-layer="125" from-port="1" to-layer="126" to-port="1"/>
		<edge from-layer="126" from-port="2" to-layer="127" to-port="0"/>
		<edge from-layer="127" from-port="1" to-layer="129" to-port="0"/>
		<edge from-layer="128" from-port="1" to-layer="129" to-port="1"/>
		<edge from-layer="129" from-port="2" to-layer="131" to-port="0"/>
		<edge from-layer="130" from-port="1" to-layer="131" to-port="1"/>
		<edge from-layer="131" from-port="2" to-layer="132" to-port="0"/>
		<edge from-layer="122" from-port="2" to-layer="133" to-port="0"/>
		<edge from-layer="132" from-port="1" to-layer="133" to-port="1"/>
		<edge from-layer="133" from-port="2" to-layer="135" to-port="0"/>
		<edge from-layer="134" from-port="1" to-layer="135" to-port="1"/>
		<edge from-layer="135" from-port="2" to-layer="137" to-port="0"/>
		<edge from-layer="136" from-port="1" to-layer="137" to-port="1"/>
		<edge from-layer="137" from-port="2" to-layer="138" to-port="0"/>
		<edge from-layer="138" from-port="1" to-layer="140" to-port="0"/>
		<edge from-layer="139" from-port="1" to-layer="140" to-port="1"/>
		<edge from-layer="140" from-port="2" to-layer="142" to-port="0"/>
		<edge from-layer="141" from-port="1" to-layer="142" to-port="1"/>
		<edge from-layer="142" from-port="2" to-layer="143" to-port="0"/>
		<edge from-layer="133" from-port="2" to-layer="144" to-port="0"/>
		<edge from-layer="143" from-port="1" to-layer="144" to-port="1"/>
		<edge from-layer="144" from-port="2" to-layer="146" to-port="0"/>
		<edge from-layer="145" from-port="1" to-layer="146" to-port="1"/>
		<edge from-layer="146" from-port="2" to-layer="148" to-port="0"/>
		<edge from-layer="147" from-port="1" to-layer="148" to-port="1"/>
		<edge from-layer="148" from-port="2" to-layer="149" to-port="0"/>
		<edge from-layer="149" from-port="1" to-layer="151" to-port="0"/>
		<edge from-layer="150" from-port="1" to-layer="151" to-port="1"/>
		<edge from-layer="151" from-port="2" to-layer="153" to-port="0"/>
		<edge from-layer="152" from-port="1" to-layer="153" to-port="1"/>
		<edge from-layer="153" from-port="2" to-layer="154" to-port="0"/>
		<edge from-layer="144" from-port="2" to-layer="155" to-port="0"/>
		<edge from-layer="154" from-port="1" to-layer="155" to-port="1"/>
		<edge from-layer="155" from-port="2" to-layer="157" to-port="0"/>
		<edge from-layer="156" from-port="1" to-layer="157" to-port="1"/>
		<edge from-layer="157" from-port="2" to-layer="159" to-port="0"/>
		<edge from-layer="158" from-port="1" to-layer="159" to-port="1"/>
		<edge from-layer="159" from-port="2" to-layer="160" to-port="0"/>
		<edge from-layer="160" from-port="1" to-layer="162" to-port="0"/>
		<edge from-layer="161" from-port="1" to-layer="162" to-port="1"/>
		<edge from-layer="162" from-port="2" to-layer="164" to-port="0"/>
		<edge from-layer="163" from-port="1" to-layer="164" to-port="1"/>
		<edge from-layer="164" from-port="2" to-layer="165" to-port="0"/>
		<edge from-layer="155" from-port="2" to-layer="166" to-port="0"/>
		<edge from-layer="165" from-port="1" to-layer="166" to-port="1"/>
		<edge from-layer="166" from-port="2" to-layer="168" to-port="0"/>
		<edge from-layer="167" from-port="1" to-layer="168" to-port="1"/>
		<edge from-layer="168" from-port="2" to-layer="170" to-port="0"/>
		<edge from-layer="169" from-port="1" to-layer="170" to-port="1"/>
		<edge from-layer="170" from-port="2" to-layer="171" to-port="0"/>
		<edge from-layer="171" from-port="1" to-layer="173" to-port="0"/>
		<edge from-layer="172" from-port="1" to-layer="173" to-port="1"/>
		<edge from-layer="173" from-port="2" to-layer="175" to-port="0"/>
		<edge from-layer="174" from-port="1" to-layer="175" to-port="1"/>
		<edge from-layer="175" from-port="2" to-layer="176" to-port="0"/>
		<edge from-layer="166" from-port="2" to-layer="177" to-port="0"/>
		<edge from-layer="176" from-port="1" to-layer="177" to-port="1"/>
		<edge from-layer="177" from-port="2" to-layer="179" to-port="0"/>
		<edge from-layer="178" from-port="1" to-layer="179" to-port="1"/>
		<edge from-layer="179" from-port="2" to-layer="181" to-port="0"/>
		<edge from-layer="180" from-port="1" to-layer="181" to-port="1"/>
		<edge from-layer="181" from-port="2" to-layer="182" to-port="0"/>
		<edge from-layer="182" from-port="1" to-layer="184" to-port="0"/>
		<edge from-layer="183" from-port="1" to-layer="184" to-port="1"/>
		<edge from-layer="184" from-port="2" to-layer="186" to-port="0"/>
		<edge from-layer="185" from-port="1" to-layer="186" to-port="1"/>
		<edge from-layer="186" from-port="2" to-layer="187" to-port="0"/>
		<edge from-layer="177" from-port="2" to-layer="188" to-port="0"/>
		<edge from-layer="187" from-port="1" to-layer="188" to-port="1"/>
		<edge from-layer="188" from-port="2" to-layer="190" to-port="0"/>
		<edge from-layer="189" from-port="1" to-layer="190" to-port="1"/>
		<edge from-layer="190" from-port="2" to-layer="192" to-port="0"/>
		<edge from-layer="191" from-port="1" to-layer="192" to-port="1"/>
		<edge from-layer="192" from-port="2" to-layer="193" to-port="0"/>
		<edge from-layer="95" from-port="1" to-layer="195" to-port="0"/>
		<edge from-layer="194" from-port="1" to-layer="195" to-port="1"/>
		<edge from-layer="195" from-port="2" to-layer="197" to-port="0"/>
		<edge from-layer="196" from-port="1" to-layer="197" to-port="1"/>
		<edge from-layer="197" from-port="2" to-layer="198" to-port="0"/>
		<edge from-layer="193" from-port="1" to-layer="199" to-port="0"/>
		<edge from-layer="198" from-port="1" to-layer="199" to-port="1"/>
		<edge from-layer="199" from-port="2" to-layer="201" to-port="0"/>
		<edge from-layer="200" from-port="1" to-layer="201" to-port="1"/>
		<edge from-layer="201" from-port="2" to-layer="203" to-port="0"/>
		<edge from-layer="202" from-port="1" to-layer="203" to-port="1"/>
		<edge from-layer="203" from-port="2" to-layer="204" to-port="0"/>
		<edge from-layer="204" from-port="1" to-layer="206" to-port="0"/>
		<edge from-layer="205" from-port="1" to-layer="206" to-port="1"/>
		<edge from-layer="206" from-port="2" to-layer="208" to-port="0"/>
		<edge from-layer="207" from-port="1" to-layer="208" to-port="1"/>
		<edge from-layer="208" from-port="2" to-layer="210" to-port="0"/>
		<edge from-layer="209" from-port="1" to-layer="210" to-port="1"/>
		<edge from-layer="204" from-port="1" to-layer="212" to-port="0"/>
		<edge from-layer="211" from-port="1" to-layer="212" to-port="1"/>
		<edge from-layer="212" from-port="2" to-layer="214" to-port="0"/>
		<edge from-layer="213" from-port="1" to-layer="214" to-port="1"/>
		<edge from-layer="214" from-port="2" to-layer="215" to-port="0"/>
		<edge from-layer="215" from-port="1" to-layer="217" to-port="0"/>
		<edge from-layer="216" from-port="1" to-layer="217" to-port="1"/>
		<edge from-layer="217" from-port="2" to-layer="219" to-port="0"/>
		<edge from-layer="218" from-port="1" to-layer="219" to-port="1"/>
		<edge from-layer="219" from-port="2" to-layer="220" to-port="0"/>
		<edge from-layer="220" from-port="1" to-layer="222" to-port="0"/>
		<edge from-layer="221" from-port="1" to-layer="222" to-port="1"/>
		<edge from-layer="222" from-port="2" to-layer="224" to-port="0"/>
		<edge from-layer="223" from-port="1" to-layer="224" to-port="1"/>
		<edge from-layer="224" from-port="2" to-layer="225" to-port="0"/>
		<edge from-layer="225" from-port="1" to-layer="227" to-port="0"/>
		<edge from-layer="226" from-port="1" to-layer="227" to-port="1"/>
		<edge from-layer="227" from-port="2" to-layer="229" to-port="0"/>
		<edge from-layer="228" from-port="1" to-layer="229" to-port="1"/>
		<edge from-layer="229" from-port="2" to-layer="230" to-port="0"/>
		<edge from-layer="220" from-port="1" to-layer="231" to-port="0"/>
		<edge from-layer="230" from-port="1" to-layer="231" to-port="1"/>
		<edge from-layer="231" from-port="2" to-layer="233" to-port="0"/>
		<edge from-layer="232" from-port="1" to-layer="233" to-port="1"/>
		<edge from-layer="233" from-port="2" to-layer="235" to-port="0"/>
		<edge from-layer="234" from-port="1" to-layer="235" to-port="1"/>
		<edge from-layer="235" from-port="2" to-layer="236" to-port="0"/>
		<edge from-layer="236" from-port="1" to-layer="238" to-port="0"/>
		<edge from-layer="237" from-port="1" to-layer="238" to-port="1"/>
		<edge from-layer="238" from-port="2" to-layer="240" to-port="0"/>
		<edge from-layer="239" from-port="1" to-layer="240" to-port="1"/>
		<edge from-layer="240" from-port="2" to-layer="241" to-port="0"/>
		<edge from-layer="231" from-port="2" to-layer="242" to-port="0"/>
		<edge from-layer="241" from-port="1" to-layer="242" to-port="1"/>
		<edge from-layer="242" from-port="2" to-layer="244" to-port="0"/>
		<edge from-layer="243" from-port="1" to-layer="244" to-port="1"/>
		<edge from-layer="244" from-port="2" to-layer="246" to-port="0"/>
		<edge from-layer="245" from-port="1" to-layer="246" to-port="1"/>
		<edge from-layer="246" from-port="2" to-layer="247" to-port="0"/>
		<edge from-layer="247" from-port="1" to-layer="249" to-port="0"/>
		<edge from-layer="248" from-port="1" to-layer="249" to-port="1"/>
		<edge from-layer="249" from-port="2" to-layer="251" to-port="0"/>
		<edge from-layer="250" from-port="1" to-layer="251" to-port="1"/>
		<edge from-layer="251" from-port="2" to-layer="252" to-port="0"/>
		<edge from-layer="242" from-port="2" to-layer="253" to-port="0"/>
		<edge from-layer="252" from-port="1" to-layer="253" to-port="1"/>
		<edge from-layer="253" from-port="2" to-layer="255" to-port="0"/>
		<edge from-layer="254" from-port="1" to-layer="255" to-port="1"/>
		<edge from-layer="255" from-port="2" to-layer="257" to-port="0"/>
		<edge from-layer="256" from-port="1" to-layer="257" to-port="1"/>
		<edge from-layer="257" from-port="2" to-layer="258" to-port="0"/>
		<edge from-layer="258" from-port="1" to-layer="260" to-port="0"/>
		<edge from-layer="259" from-port="1" to-layer="260" to-port="1"/>
		<edge from-layer="260" from-port="2" to-layer="262" to-port="0"/>
		<edge from-layer="261" from-port="1" to-layer="262" to-port="1"/>
		<edge from-layer="262" from-port="2" to-layer="263" to-port="0"/>
		<edge from-layer="253" from-port="2" to-layer="264" to-port="0"/>
		<edge from-layer="263" from-port="1" to-layer="264" to-port="1"/>
		<edge from-layer="264" from-port="2" to-layer="266" to-port="0"/>
		<edge from-layer="265" from-port="1" to-layer="266" to-port="1"/>
		<edge from-layer="266" from-port="2" to-layer="268" to-port="0"/>
		<edge from-layer="267" from-port="1" to-layer="268" to-port="1"/>
		<edge from-layer="268" from-port="2" to-layer="269" to-port="0"/>
		<edge from-layer="269" from-port="1" to-layer="271" to-port="0"/>
		<edge from-layer="270" from-port="1" to-layer="271" to-port="1"/>
		<edge from-layer="271" from-port="2" to-layer="273" to-port="0"/>
		<edge from-layer="272" from-port="1" to-layer="273" to-port="1"/>
		<edge from-layer="273" from-port="2" to-layer="274" to-port="0"/>
		<edge from-layer="264" from-port="2" to-layer="275" to-port="0"/>
		<edge from-layer="274" from-port="1" to-layer="275" to-port="1"/>
		<edge from-layer="275" from-port="2" to-layer="277" to-port="0"/>
		<edge from-layer="276" from-port="1" to-layer="277" to-port="1"/>
		<edge from-layer="277" from-port="2" to-layer="279" to-port="0"/>
		<edge from-layer="278" from-port="1" to-layer="279" to-port="1"/>
		<edge from-layer="279" from-port="2" to-layer="280" to-port="0"/>
		<edge from-layer="280" from-port="1" to-layer="282" to-port="0"/>
		<edge from-layer="281" from-port="1" to-layer="282" to-port="1"/>
		<edge from-layer="282" from-port="2" to-layer="284" to-port="0"/>
		<edge from-layer="283" from-port="1" to-layer="284" to-port="1"/>
		<edge from-layer="284" from-port="2" to-layer="285" to-port="0"/>
		<edge from-layer="275" from-port="2" to-layer="286" to-port="0"/>
		<edge from-layer="285" from-port="1" to-layer="286" to-port="1"/>
		<edge from-layer="286" from-port="2" to-layer="288" to-port="0"/>
		<edge from-layer="287" from-port="1" to-layer="288" to-port="1"/>
		<edge from-layer="288" from-port="2" to-layer="290" to-port="0"/>
		<edge from-layer="289" from-port="1" to-layer="290" to-port="1"/>
		<edge from-layer="290" from-port="2" to-layer="291" to-port="0"/>
		<edge from-layer="291" from-port="1" to-layer="293" to-port="0"/>
		<edge from-layer="292" from-port="1" to-layer="293" to-port="1"/>
		<edge from-layer="293" from-port="2" to-layer="295" to-port="0"/>
		<edge from-layer="294" from-port="1" to-layer="295" to-port="1"/>
		<edge from-layer="295" from-port="2" to-layer="296" to-port="0"/>
		<edge from-layer="286" from-port="2" to-layer="297" to-port="0"/>
		<edge from-layer="296" from-port="1" to-layer="297" to-port="1"/>
		<edge from-layer="297" from-port="2" to-layer="299" to-port="0"/>
		<edge from-layer="298" from-port="1" to-layer="299" to-port="1"/>
		<edge from-layer="299" from-port="2" to-layer="301" to-port="0"/>
		<edge from-layer="300" from-port="1" to-layer="301" to-port="1"/>
		<edge from-layer="301" from-port="2" to-layer="302" to-port="0"/>
		<edge from-layer="302" from-port="1" to-layer="304" to-port="0"/>
		<edge from-layer="303" from-port="1" to-layer="304" to-port="1"/>
		<edge from-layer="304" from-port="2" to-layer="306" to-port="0"/>
		<edge from-layer="305" from-port="1" to-layer="306" to-port="1"/>
		<edge from-layer="306" from-port="2" to-layer="307" to-port="0"/>
		<edge from-layer="297" from-port="2" to-layer="308" to-port="0"/>
		<edge from-layer="307" from-port="1" to-layer="308" to-port="1"/>
		<edge from-layer="308" from-port="2" to-layer="310" to-port="0"/>
		<edge from-layer="309" from-port="1" to-layer="310" to-port="1"/>
		<edge from-layer="310" from-port="2" to-layer="312" to-port="0"/>
		<edge from-layer="311" from-port="1" to-layer="312" to-port="1"/>
		<edge from-layer="312" from-port="2" to-layer="313" to-port="0"/>
		<edge from-layer="215" from-port="1" to-layer="315" to-port="0"/>
		<edge from-layer="314" from-port="1" to-layer="315" to-port="1"/>
		<edge from-layer="315" from-port="2" to-layer="317" to-port="0"/>
		<edge from-layer="316" from-port="1" to-layer="317" to-port="1"/>
		<edge from-layer="317" from-port="2" to-layer="318" to-port="0"/>
		<edge from-layer="313" from-port="1" to-layer="319" to-port="0"/>
		<edge from-layer="318" from-port="1" to-layer="319" to-port="1"/>
		<edge from-layer="319" from-port="2" to-layer="321" to-port="0"/>
		<edge from-layer="320" from-port="1" to-layer="321" to-port="1"/>
		<edge from-layer="321" from-port="2" to-layer="323" to-port="0"/>
		<edge from-layer="322" from-port="1" to-layer="323" to-port="1"/>
		<edge from-layer="323" from-port="2" to-layer="324" to-port="0"/>
		<edge from-layer="324" from-port="1" to-layer="326" to-port="0"/>
		<edge from-layer="325" from-port="1" to-layer="326" to-port="1"/>
		<edge from-layer="326" from-port="2" to-layer="328" to-port="0"/>
		<edge from-layer="327" from-port="1" to-layer="328" to-port="1"/>
		<edge from-layer="328" from-port="2" to-layer="330" to-port="0"/>
		<edge from-layer="329" from-port="1" to-layer="330" to-port="1"/>
		<edge from-layer="324" from-port="1" to-layer="332" to-port="0"/>
		<edge from-layer="331" from-port="1" to-layer="332" to-port="1"/>
		<edge from-layer="332" from-port="2" to-layer="334" to-port="0"/>
		<edge from-layer="333" from-port="1" to-layer="334" to-port="1"/>
		<edge from-layer="334" from-port="2" to-layer="335" to-port="0"/>
		<edge from-layer="335" from-port="1" to-layer="337" to-port="0"/>
		<edge from-layer="336" from-port="1" to-layer="337" to-port="1"/>
		<edge from-layer="337" from-port="2" to-layer="339" to-port="0"/>
		<edge from-layer="338" from-port="1" to-layer="339" to-port="1"/>
		<edge from-layer="339" from-port="2" to-layer="340" to-port="0"/>
		<edge from-layer="340" from-port="1" to-layer="342" to-port="0"/>
		<edge from-layer="341" from-port="1" to-layer="342" to-port="1"/>
		<edge from-layer="342" from-port="2" to-layer="344" to-port="0"/>
		<edge from-layer="343" from-port="1" to-layer="344" to-port="1"/>
		<edge from-layer="344" from-port="2" to-layer="345" to-port="0"/>
		<edge from-layer="345" from-port="1" to-layer="347" to-port="0"/>
		<edge from-layer="346" from-port="1" to-layer="347" to-port="1"/>
		<edge from-layer="347" from-port="2" to-layer="349" to-port="0"/>
		<edge from-layer="348" from-port="1" to-layer="349" to-port="1"/>
		<edge from-layer="349" from-port="2" to-layer="350" to-port="0"/>
		<edge from-layer="340" from-port="1" to-layer="351" to-port="0"/>
		<edge from-layer="350" from-port="1" to-layer="351" to-port="1"/>
		<edge from-layer="351" from-port="2" to-layer="353" to-port="0"/>
		<edge from-layer="352" from-port="1" to-layer="353" to-port="1"/>
		<edge from-layer="353" from-port="2" to-layer="355" to-port="0"/>
		<edge from-layer="354" from-port="1" to-layer="355" to-port="1"/>
		<edge from-layer="355" from-port="2" to-layer="356" to-port="0"/>
		<edge from-layer="356" from-port="1" to-layer="358" to-port="0"/>
		<edge from-layer="357" from-port="1" to-layer="358" to-port="1"/>
		<edge from-layer="358" from-port="2" to-layer="360" to-port="0"/>
		<edge from-layer="359" from-port="1" to-layer="360" to-port="1"/>
		<edge from-layer="360" from-port="2" to-layer="361" to-port="0"/>
		<edge from-layer="351" from-port="2" to-layer="362" to-port="0"/>
		<edge from-layer="361" from-port="1" to-layer="362" to-port="1"/>
		<edge from-layer="362" from-port="2" to-layer="364" to-port="0"/>
		<edge from-layer="363" from-port="1" to-layer="364" to-port="1"/>
		<edge from-layer="364" from-port="2" to-layer="366" to-port="0"/>
		<edge from-layer="365" from-port="1" to-layer="366" to-port="1"/>
		<edge from-layer="366" from-port="2" to-layer="367" to-port="0"/>
		<edge from-layer="367" from-port="1" to-layer="369" to-port="0"/>
		<edge from-layer="368" from-port="1" to-layer="369" to-port="1"/>
		<edge from-layer="369" from-port="2" to-layer="371" to-port="0"/>
		<edge from-layer="370" from-port="1" to-layer="371" to-port="1"/>
		<edge from-layer="371" from-port="2" to-layer="372" to-port="0"/>
		<edge from-layer="362" from-port="2" to-layer="373" to-port="0"/>
		<edge from-layer="372" from-port="1" to-layer="373" to-port="1"/>
		<edge from-layer="373" from-port="2" to-layer="375" to-port="0"/>
		<edge from-layer="374" from-port="1" to-layer="375" to-port="1"/>
		<edge from-layer="375" from-port="2" to-layer="377" to-port="0"/>
		<edge from-layer="376" from-port="1" to-layer="377" to-port="1"/>
		<edge from-layer="377" from-port="2" to-layer="378" to-port="0"/>
		<edge from-layer="378" from-port="1" to-layer="380" to-port="0"/>
		<edge from-layer="379" from-port="1" to-layer="380" to-port="1"/>
		<edge from-layer="380" from-port="2" to-layer="382" to-port="0"/>
		<edge from-layer="381" from-port="1" to-layer="382" to-port="1"/>
		<edge from-layer="382" from-port="2" to-layer="383" to-port="0"/>
		<edge from-layer="373" from-port="2" to-layer="384" to-port="0"/>
		<edge from-layer="383" from-port="1" to-layer="384" to-port="1"/>
		<edge from-layer="384" from-port="2" to-layer="386" to-port="0"/>
		<edge from-layer="385" from-port="1" to-layer="386" to-port="1"/>
		<edge from-layer="386" from-port="2" to-layer="388" to-port="0"/>
		<edge from-layer="387" from-port="1" to-layer="388" to-port="1"/>
		<edge from-layer="388" from-port="2" to-layer="389" to-port="0"/>
		<edge from-layer="335" from-port="1" to-layer="391" to-port="0"/>
		<edge from-layer="390" from-port="1" to-layer="391" to-port="1"/>
		<edge from-layer="391" from-port="2" to-layer="393" to-port="0"/>
		<edge from-layer="392" from-port="1" to-layer="393" to-port="1"/>
		<edge from-layer="393" from-port="2" to-layer="394" to-port="0"/>
		<edge from-layer="389" from-port="1" to-layer="395" to-port="0"/>
		<edge from-layer="394" from-port="1" to-layer="395" to-port="1"/>
		<edge from-layer="395" from-port="2" to-layer="397" to-port="0"/>
		<edge from-layer="396" from-port="1" to-layer="397" to-port="1"/>
		<edge from-layer="397" from-port="2" to-layer="399" to-port="0"/>
		<edge from-layer="398" from-port="1" to-layer="399" to-port="1"/>
		<edge from-layer="399" from-port="2" to-layer="400" to-port="0"/>
		<edge from-layer="400" from-port="1" to-layer="402" to-port="0"/>
		<edge from-layer="401" from-port="1" to-layer="402" to-port="1"/>
		<edge from-layer="402" from-port="2" to-layer="404" to-port="0"/>
		<edge from-layer="403" from-port="1" to-layer="404" to-port="1"/>
		<edge from-layer="404" from-port="2" to-layer="406" to-port="0"/>
		<edge from-layer="405" from-port="1" to-layer="406" to-port="1"/>
		<edge from-layer="406" from-port="2" to-layer="408" to-port="0"/>
		<edge from-layer="407" from-port="1" to-layer="408" to-port="1"/>
		<edge from-layer="408" from-port="2" to-layer="410" to-port="0"/>
		<edge from-layer="409" from-port="1" to-layer="410" to-port="1"/>
		<edge from-layer="410" from-port="2" to-layer="412" to-port="0"/>
		<edge from-layer="411" from-port="1" to-layer="412" to-port="1"/>
		<edge from-layer="412" from-port="2" to-layer="414" to-port="0"/>
		<edge from-layer="413" from-port="1" to-layer="414" to-port="1"/>
		<edge from-layer="414" from-port="2" to-layer="416" to-port="0"/>
		<edge from-layer="415" from-port="1" to-layer="416" to-port="1"/>
		<edge from-layer="416" from-port="2" to-layer="418" to-port="0"/>
		<edge from-layer="417" from-port="1" to-layer="418" to-port="1"/>
		<edge from-layer="418" from-port="2" to-layer="419" to-port="0"/>
		<edge from-layer="418" from-port="2" to-layer="420" to-port="0"/>
		<edge from-layer="418" from-port="2" to-layer="421" to-port="0"/>
		<edge from-layer="419" from-port="1" to-layer="422" to-port="0"/>
		<edge from-layer="420" from-port="1" to-layer="422" to-port="1"/>
		<edge from-layer="421" from-port="1" to-layer="422" to-port="2"/>
		<edge from-layer="418" from-port="2" to-layer="422" to-port="3"/>
		<edge from-layer="422" from-port="4" to-layer="424" to-port="0"/>
		<edge from-layer="423" from-port="1" to-layer="424" to-port="1"/>
		<edge from-layer="424" from-port="2" to-layer="426" to-port="0"/>
		<edge from-layer="425" from-port="1" to-layer="426" to-port="1"/>
		<edge from-layer="426" from-port="2" to-layer="428" to-port="0"/>
		<edge from-layer="427" from-port="1" to-layer="428" to-port="1"/>
		<edge from-layer="428" from-port="2" to-layer="430" to-port="0"/>
		<edge from-layer="429" from-port="1" to-layer="430" to-port="1"/>
		<edge from-layer="430" from-port="2" to-layer="432" to-port="0"/>
		<edge from-layer="431" from-port="1" to-layer="432" to-port="1"/>
		<edge from-layer="432" from-port="2" to-layer="434" to-port="0"/>
		<edge from-layer="433" from-port="1" to-layer="434" to-port="1"/>
		<edge from-layer="434" from-port="2" to-layer="436" to-port="0"/>
		<edge from-layer="435" from-port="1" to-layer="436" to-port="1"/>
		<edge from-layer="436" from-port="2" to-layer="438" to-port="0"/>
		<edge from-layer="437" from-port="1" to-layer="438" to-port="1"/>
		<edge from-layer="438" from-port="2" to-layer="440" to-port="0"/>
		<edge from-layer="439" from-port="1" to-layer="440" to-port="1"/>
		<edge from-layer="440" from-port="2" to-layer="442" to-port="0"/>
		<edge from-layer="441" from-port="1" to-layer="442" to-port="1"/>
		<edge from-layer="442" from-port="2" to-layer="444" to-port="0"/>
		<edge from-layer="443" from-port="1" to-layer="444" to-port="1"/>
		<edge from-layer="444" from-port="2" to-layer="446" to-port="0"/>
		<edge from-layer="445" from-port="1" to-layer="446" to-port="1"/>
		<edge from-layer="446" from-port="2" to-layer="447" to-port="0"/>
		<edge from-layer="447" from-port="1" to-layer="450" to-port="0"/>
		<edge from-layer="448" from-port="1" to-layer="450" to-port="1"/>
		<edge from-layer="449" from-port="1" to-layer="450" to-port="2"/>
		<edge from-layer="450" from-port="3" to-layer="454" to-port="0"/>
		<edge from-layer="451" from-port="1" to-layer="454" to-port="1"/>
		<edge from-layer="452" from-port="1" to-layer="454" to-port="2"/>
		<edge from-layer="453" from-port="1" to-layer="454" to-port="3"/>
		<edge from-layer="454" from-port="4" to-layer="456" to-port="0"/>
		<edge from-layer="455" from-port="1" to-layer="456" to-port="1"/>
		<edge from-layer="456" from-port="2" to-layer="457" to-port="0"/>
		<edge from-layer="446" from-port="2" to-layer="458" to-port="0"/>
		<edge from-layer="457" from-port="1" to-layer="458" to-port="1"/>
		<edge from-layer="330" from-port="2" to-layer="459" to-port="0"/>
		<edge from-layer="458" from-port="2" to-layer="459" to-port="1"/>
		<edge from-layer="459" from-port="2" to-layer="461" to-port="0"/>
		<edge from-layer="460" from-port="1" to-layer="461" to-port="1"/>
		<edge from-layer="461" from-port="2" to-layer="463" to-port="0"/>
		<edge from-layer="462" from-port="1" to-layer="463" to-port="1"/>
		<edge from-layer="463" from-port="2" to-layer="465" to-port="0"/>
		<edge from-layer="464" from-port="1" to-layer="465" to-port="1"/>
		<edge from-layer="465" from-port="2" to-layer="467" to-port="0"/>
		<edge from-layer="466" from-port="1" to-layer="467" to-port="1"/>
		<edge from-layer="467" from-port="2" to-layer="469" to-port="0"/>
		<edge from-layer="468" from-port="1" to-layer="469" to-port="1"/>
		<edge from-layer="469" from-port="2" to-layer="471" to-port="0"/>
		<edge from-layer="470" from-port="1" to-layer="471" to-port="1"/>
		<edge from-layer="471" from-port="2" to-layer="473" to-port="0"/>
		<edge from-layer="472" from-port="1" to-layer="473" to-port="1"/>
		<edge from-layer="473" from-port="2" to-layer="475" to-port="0"/>
		<edge from-layer="474" from-port="1" to-layer="475" to-port="1"/>
		<edge from-layer="475" from-port="2" to-layer="477" to-port="0"/>
		<edge from-layer="476" from-port="1" to-layer="477" to-port="1"/>
		<edge from-layer="477" from-port="2" to-layer="479" to-port="0"/>
		<edge from-layer="478" from-port="1" to-layer="479" to-port="1"/>
		<edge from-layer="479" from-port="2" to-layer="481" to-port="0"/>
		<edge from-layer="480" from-port="1" to-layer="481" to-port="1"/>
		<edge from-layer="481" from-port="2" to-layer="483" to-port="0"/>
		<edge from-layer="482" from-port="1" to-layer="483" to-port="1"/>
		<edge from-layer="483" from-port="2" to-layer="485" to-port="0"/>
		<edge from-layer="484" from-port="1" to-layer="485" to-port="1"/>
		<edge from-layer="485" from-port="2" to-layer="487" to-port="0"/>
		<edge from-layer="486" from-port="1" to-layer="487" to-port="1"/>
		<edge from-layer="487" from-port="2" to-layer="489" to-port="0"/>
		<edge from-layer="488" from-port="1" to-layer="489" to-port="1"/>
		<edge from-layer="489" from-port="2" to-layer="491" to-port="0"/>
		<edge from-layer="490" from-port="1" to-layer="491" to-port="1"/>
		<edge from-layer="491" from-port="2" to-layer="493" to-port="0"/>
		<edge from-layer="492" from-port="1" to-layer="493" to-port="1"/>
		<edge from-layer="493" from-port="2" to-layer="495" to-port="0"/>
		<edge from-layer="494" from-port="1" to-layer="495" to-port="1"/>
		<edge from-layer="495" from-port="2" to-layer="496" to-port="0"/>
		<edge from-layer="496" from-port="1" to-layer="499" to-port="0"/>
		<edge from-layer="497" from-port="1" to-layer="499" to-port="1"/>
		<edge from-layer="498" from-port="1" to-layer="499" to-port="2"/>
		<edge from-layer="499" from-port="3" to-layer="503" to-port="0"/>
		<edge from-layer="500" from-port="1" to-layer="503" to-port="1"/>
		<edge from-layer="501" from-port="1" to-layer="503" to-port="2"/>
		<edge from-layer="502" from-port="1" to-layer="503" to-port="3"/>
		<edge from-layer="503" from-port="4" to-layer="505" to-port="0"/>
		<edge from-layer="504" from-port="1" to-layer="505" to-port="1"/>
		<edge from-layer="505" from-port="2" to-layer="506" to-port="0"/>
		<edge from-layer="495" from-port="2" to-layer="507" to-port="0"/>
		<edge from-layer="506" from-port="1" to-layer="507" to-port="1"/>
		<edge from-layer="210" from-port="2" to-layer="508" to-port="0"/>
		<edge from-layer="507" from-port="2" to-layer="508" to-port="1"/>
		<edge from-layer="508" from-port="2" to-layer="510" to-port="0"/>
		<edge from-layer="509" from-port="1" to-layer="510" to-port="1"/>
		<edge from-layer="510" from-port="2" to-layer="512" to-port="0"/>
		<edge from-layer="511" from-port="1" to-layer="512" to-port="1"/>
		<edge from-layer="512" from-port="2" to-layer="514" to-port="0"/>
		<edge from-layer="513" from-port="1" to-layer="514" to-port="1"/>
		<edge from-layer="514" from-port="2" to-layer="516" to-port="0"/>
		<edge from-layer="515" from-port="1" to-layer="516" to-port="1"/>
		<edge from-layer="516" from-port="2" to-layer="518" to-port="0"/>
		<edge from-layer="517" from-port="1" to-layer="518" to-port="1"/>
		<edge from-layer="518" from-port="2" to-layer="520" to-port="0"/>
		<edge from-layer="519" from-port="1" to-layer="520" to-port="1"/>
		<edge from-layer="520" from-port="2" to-layer="522" to-port="0"/>
		<edge from-layer="521" from-port="1" to-layer="522" to-port="1"/>
		<edge from-layer="522" from-port="2" to-layer="524" to-port="0"/>
		<edge from-layer="523" from-port="1" to-layer="524" to-port="1"/>
		<edge from-layer="524" from-port="2" to-layer="526" to-port="0"/>
		<edge from-layer="525" from-port="1" to-layer="526" to-port="1"/>
		<edge from-layer="526" from-port="2" to-layer="528" to-port="0"/>
		<edge from-layer="527" from-port="1" to-layer="528" to-port="1"/>
		<edge from-layer="528" from-port="2" to-layer="530" to-port="0"/>
		<edge from-layer="529" from-port="1" to-layer="530" to-port="1"/>
		<edge from-layer="530" from-port="2" to-layer="532" to-port="0"/>
		<edge from-layer="531" from-port="1" to-layer="532" to-port="1"/>
		<edge from-layer="532" from-port="2" to-layer="534" to-port="0"/>
		<edge from-layer="533" from-port="1" to-layer="534" to-port="1"/>
		<edge from-layer="534" from-port="2" to-layer="536" to-port="0"/>
		<edge from-layer="535" from-port="1" to-layer="536" to-port="1"/>
		<edge from-layer="536" from-port="2" to-layer="538" to-port="0"/>
		<edge from-layer="537" from-port="1" to-layer="538" to-port="1"/>
		<edge from-layer="538" from-port="2" to-layer="540" to-port="0"/>
		<edge from-layer="539" from-port="1" to-layer="540" to-port="1"/>
		<edge from-layer="540" from-port="2" to-layer="542" to-port="0"/>
		<edge from-layer="541" from-port="1" to-layer="542" to-port="1"/>
		<edge from-layer="542" from-port="2" to-layer="544" to-port="0"/>
		<edge from-layer="543" from-port="1" to-layer="544" to-port="1"/>
		<edge from-layer="544" from-port="2" to-layer="545" to-port="0"/>
		<edge from-layer="489" from-port="2" to-layer="545" to-port="1"/>
		<edge from-layer="545" from-port="2" to-layer="547" to-port="0"/>
		<edge from-layer="546" from-port="1" to-layer="547" to-port="1"/>
		<edge from-layer="547" from-port="2" to-layer="549" to-port="0"/>
		<edge from-layer="548" from-port="1" to-layer="549" to-port="1"/>
		<edge from-layer="549" from-port="2" to-layer="551" to-port="0"/>
		<edge from-layer="550" from-port="1" to-layer="551" to-port="1"/>
		<edge from-layer="551" from-port="2" to-layer="553" to-port="0"/>
		<edge from-layer="552" from-port="1" to-layer="553" to-port="1"/>
		<edge from-layer="553" from-port="2" to-layer="555" to-port="0"/>
		<edge from-layer="554" from-port="1" to-layer="555" to-port="1"/>
		<edge from-layer="555" from-port="2" to-layer="557" to-port="0"/>
		<edge from-layer="556" from-port="1" to-layer="557" to-port="1"/>
		<edge from-layer="557" from-port="2" to-layer="559" to-port="0"/>
		<edge from-layer="558" from-port="1" to-layer="559" to-port="1"/>
		<edge from-layer="559" from-port="2" to-layer="561" to-port="0"/>
		<edge from-layer="560" from-port="1" to-layer="561" to-port="1"/>
		<edge from-layer="561" from-port="2" to-layer="563" to-port="0"/>
		<edge from-layer="562" from-port="1" to-layer="563" to-port="1"/>
		<edge from-layer="563" from-port="2" to-layer="565" to-port="0"/>
		<edge from-layer="564" from-port="1" to-layer="565" to-port="1"/>
		<edge from-layer="565" from-port="2" to-layer="567" to-port="0"/>
		<edge from-layer="566" from-port="1" to-layer="567" to-port="1"/>
		<edge from-layer="567" from-port="2" to-layer="569" to-port="0"/>
		<edge from-layer="568" from-port="1" to-layer="569" to-port="1"/>
		<edge from-layer="569" from-port="2" to-layer="571" to-port="0"/>
		<edge from-layer="570" from-port="1" to-layer="571" to-port="1"/>
		<edge from-layer="571" from-port="2" to-layer="573" to-port="0"/>
		<edge from-layer="572" from-port="1" to-layer="573" to-port="1"/>
		<edge from-layer="573" from-port="2" to-layer="575" to-port="0"/>
		<edge from-layer="574" from-port="1" to-layer="575" to-port="1"/>
		<edge from-layer="575" from-port="2" to-layer="577" to-port="0"/>
		<edge from-layer="576" from-port="1" to-layer="577" to-port="1"/>
		<edge from-layer="577" from-port="2" to-layer="579" to-port="0"/>
		<edge from-layer="578" from-port="1" to-layer="579" to-port="1"/>
		<edge from-layer="579" from-port="2" to-layer="581" to-port="0"/>
		<edge from-layer="580" from-port="1" to-layer="581" to-port="1"/>
		<edge from-layer="581" from-port="2" to-layer="583" to-port="0"/>
		<edge from-layer="582" from-port="1" to-layer="583" to-port="1"/>
		<edge from-layer="583" from-port="2" to-layer="585" to-port="0"/>
		<edge from-layer="584" from-port="1" to-layer="585" to-port="1"/>
		<edge from-layer="585" from-port="2" to-layer="586" to-port="0"/>
		<edge from-layer="575" from-port="2" to-layer="588" to-port="0"/>
		<edge from-layer="587" from-port="1" to-layer="588" to-port="1"/>
		<edge from-layer="588" from-port="2" to-layer="590" to-port="0"/>
		<edge from-layer="589" from-port="1" to-layer="590" to-port="1"/>
		<edge from-layer="590" from-port="2" to-layer="592" to-port="0"/>
		<edge from-layer="591" from-port="1" to-layer="592" to-port="1"/>
		<edge from-layer="592" from-port="2" to-layer="593" to-port="0"/>
		<edge from-layer="440" from-port="2" to-layer="593" to-port="1"/>
		<edge from-layer="593" from-port="2" to-layer="595" to-port="0"/>
		<edge from-layer="594" from-port="1" to-layer="595" to-port="1"/>
		<edge from-layer="595" from-port="2" to-layer="597" to-port="0"/>
		<edge from-layer="596" from-port="1" to-layer="597" to-port="1"/>
		<edge from-layer="597" from-port="2" to-layer="599" to-port="0"/>
		<edge from-layer="598" from-port="1" to-layer="599" to-port="1"/>
		<edge from-layer="599" from-port="2" to-layer="601" to-port="0"/>
		<edge from-layer="600" from-port="1" to-layer="601" to-port="1"/>
		<edge from-layer="601" from-port="2" to-layer="603" to-port="0"/>
		<edge from-layer="602" from-port="1" to-layer="603" to-port="1"/>
		<edge from-layer="603" from-port="2" to-layer="605" to-port="0"/>
		<edge from-layer="604" from-port="1" to-layer="605" to-port="1"/>
		<edge from-layer="605" from-port="2" to-layer="607" to-port="0"/>
		<edge from-layer="606" from-port="1" to-layer="607" to-port="1"/>
		<edge from-layer="607" from-port="2" to-layer="609" to-port="0"/>
		<edge from-layer="608" from-port="1" to-layer="609" to-port="1"/>
		<edge from-layer="609" from-port="2" to-layer="611" to-port="0"/>
		<edge from-layer="610" from-port="1" to-layer="611" to-port="1"/>
		<edge from-layer="611" from-port="2" to-layer="613" to-port="0"/>
		<edge from-layer="612" from-port="1" to-layer="613" to-port="1"/>
		<edge from-layer="613" from-port="2" to-layer="615" to-port="0"/>
		<edge from-layer="614" from-port="1" to-layer="615" to-port="1"/>
		<edge from-layer="615" from-port="2" to-layer="617" to-port="0"/>
		<edge from-layer="616" from-port="1" to-layer="617" to-port="1"/>
		<edge from-layer="617" from-port="2" to-layer="619" to-port="0"/>
		<edge from-layer="618" from-port="1" to-layer="619" to-port="1"/>
		<edge from-layer="619" from-port="2" to-layer="621" to-port="0"/>
		<edge from-layer="620" from-port="1" to-layer="621" to-port="1"/>
		<edge from-layer="621" from-port="2" to-layer="623" to-port="0"/>
		<edge from-layer="622" from-port="1" to-layer="623" to-port="1"/>
		<edge from-layer="623" from-port="2" to-layer="625" to-port="0"/>
		<edge from-layer="624" from-port="1" to-layer="625" to-port="1"/>
		<edge from-layer="625" from-port="2" to-layer="627" to-port="0"/>
		<edge from-layer="626" from-port="1" to-layer="627" to-port="1"/>
		<edge from-layer="627" from-port="2" to-layer="629" to-port="0"/>
		<edge from-layer="628" from-port="1" to-layer="629" to-port="1"/>
		<edge from-layer="629" from-port="2" to-layer="631" to-port="0"/>
		<edge from-layer="630" from-port="1" to-layer="631" to-port="1"/>
		<edge from-layer="631" from-port="2" to-layer="633" to-port="0"/>
		<edge from-layer="632" from-port="1" to-layer="633" to-port="1"/>
		<edge from-layer="633" from-port="2" to-layer="634" to-port="0"/>
		<edge from-layer="538" from-port="2" to-layer="636" to-port="0"/>
		<edge from-layer="635" from-port="1" to-layer="636" to-port="1"/>
		<edge from-layer="636" from-port="2" to-layer="638" to-port="0"/>
		<edge from-layer="637" from-port="1" to-layer="638" to-port="1"/>
		<edge from-layer="638" from-port="2" to-layer="640" to-port="0"/>
		<edge from-layer="639" from-port="1" to-layer="640" to-port="1"/>
		<edge from-layer="640" from-port="2" to-layer="642" to-port="0"/>
		<edge from-layer="641" from-port="1" to-layer="642" to-port="1"/>
		<edge from-layer="642" from-port="2" to-layer="644" to-port="0"/>
		<edge from-layer="643" from-port="1" to-layer="644" to-port="1"/>
		<edge from-layer="644" from-port="2" to-layer="645" to-port="0"/>
	</edges>
	<meta_data>
		<MO_version value="2021.2.0-1877-176bdf51370-releases/2021/2"/>
		<cli_parameters>
			<data_type value="float"/>
			<disable_nhwc_to_nchw value="False"/>
			<disable_resnet_optimization value="False"/>
			<disable_weights_compression value="False"/>
			<enable_concat_optimization value="False"/>
			<extensions value="DIR"/>
			<framework value="tf"/>
			<freeze_placeholder_with_value value="{}"/>
			<generate_deprecated_IR_V7 value="False"/>
			<input_model_is_text value="False"/>
			<input_shape value="[1,608,608,3]"/>
			<keep_shape_ops value="True"/>
			<log_level value="ERROR"/>
			<mean_scale_values value="{}"/>
			<mean_values value="()"/>
			<model_name value="saved_model"/>
			<output_dir value="DIR"/>
			<placeholder_data_types value="{}"/>
			<placeholder_shapes value="[  1 608 608   3]"/>
			<progress value="False"/>
			<reverse_input_channels value="False"/>
			<saved_model_dir value="DIR"/>
			<scale_values value="()"/>
			<silent value="False"/>
			<static_shape value="False"/>
			<stream_output value="False"/>
			<unset unset_cli_parameters="batch, disable_fusing, disable_gfusing, finegrain_fusing, input, input_checkpoint, input_meta_graph, input_model, move_to_preprocess, output, saved_model_tags, scale, tensorboard_logdir, tensorflow_custom_layer_libraries, tensorflow_custom_operations_config_update, tensorflow_object_detection_api_pipeline_config, tensorflow_use_custom_operations_config, transformations_config"/>
		</cli_parameters>
	</meta_data>
</net>
